checkpoint_critic.pth (torch_old, 87019 bytes, 5 tensors)

fcs1.weight f4 [128, 33]
000000 73 91 71 3a 15 95 2b bc 04 75 0b 3e cf 1e 6a 3c
       0.0009215094 -0.010472556 0.13618857 0.014289572
000010 61 60 36 3d 72 62 9a b9 5f 43 8a 3d b8 d6 66 3c
       0.044525508 -0.00029446516 0.06751131 0.014089279
000020 3e 95 3c bd 59 1e 1d bd e9 1e 0c 3d e8 fb 37 bd
       -0.046040766 -0.03835902 0.034209166 -0.04491797
000030 02 bc 38 3d 2f 14 80 3c 24 0a b4 3c 8c 0b 65 bd
       0.045101173 0.015634624 0.021977492 -0.055919215
000040 ae 77 08 bd cd 3b 36 3a 29 6a 3c bd be eb ac bb
       -0.03331726 0.000695166 -0.04599968 -0.005277126
000050 6b f3 7c bc a2 b1 62 bd fa 2e 5f bd ee c4 f0 3c
       -0.015438895 -0.055345185 -0.05448816 0.029390778
000060 ad c9 20 3d 3c da f3 bb 03 4d 89 bb 40 6b 40 bd
       0.039254833 -0.007441787 -0.0041900887 -0.04697728
000070 71 e8 db bd 40 18 c5 3a e8 77 a2 3d 00 93 af 3a
       -0.10737694 0.0015037134 0.079330266 0.001339525
000080 3a e2 f8 3d ca 6b 80 bd b4 13 11 3e 0a bb 4b 3d
       0.12152524 -0.06270559 0.14167672 0.04973892
000090 f8 03 85 bb 58 e1 85 3d 22 ff aa 3c 33 c5 09 be
       -0.004059311 0.065371215 0.02087361 -0.13454132
0000a0 b2 52 47 bb cf bb 28 be 42 34 62 bc 0b 06 b8 bb
       -0.003041428 -0.16477893 -0.013806405 -0.0056159548
0000b0 66 cd 89 bb d1 68 ca 3d 33 1d f5 bc 7e 2b 96 bd
       -0.0042053936 0.098832734 -0.02992115 -0.07332514
0000c0 6d 0f 5c bd 73 4b a7 3d b4 e0 53 bd 39 e9 07 bd
       -0.05372565 0.08168688 -0.051727965 -0.033181403
0000d0 32 41 4a bd c8 9c c5 3d 3c f3 22 bd 66 65 88 bd
       -0.04937858 0.09649044 -0.039782748 -0.06659965
0000e0 15 14 23 3e 03 6d 8a bb a7 87 fd bc d6 a4 50 3c
       0.1592563 -0.004224421 -0.030948473 0.012734612
0000f0 0b 42 36 3d bb dd c6 3d fc 29 d7 bc cb ad 45 bb
       0.044496577 0.097102605 -0.026265137 -0.0030163403
000100 60 fc da bc 47 9c da 3d 77 aa 57 3d 4f 80 1a bd
       -0.02673167 0.10674339 0.052652802 -0.03772002
000110 c9 ad 2d bc 5b 97 6e bb 97 6f 43 bc ab c4 13 bc
       -0.010600516 -0.0036406133 -0.011928461 -0.009019057
000120 bf bd 6c 3b c5 77 89 bd f1 80 c7 bd e1 70 e6 3a
       0.003612384 -0.06712297 -0.097413905 0.0017581248
000130 fb 1e dc 3d 1b 4b d8 3c d2 e7 ab 3c 26 ec d8 bc
       0.107480966 0.026403 0.020984564 -0.026479792
000140 d8 df 8f bd 24 39 d3 3c 76 86 9a 3c 1e 2b 34 3d
       -0.07025117 0.025784083 0.018862944 0.043986432
000150 46 1b 30 3c 7c 54 e4 bc 4a 77 7e 3d 5a 6e b7 3c
       0.01074869 -0.027872317 0.06212548 0.022391487
000160 97 90 95 bc f0 5c 3c 3d 34 61 2b 3a ff 10 78 3d
       -0.018257422 0.04598707 0.0006537617 0.060563084
000170 7a f8 05 3e bb 4b 0d 3c 41 a2 84 bd f3 ff 94 3d
       0.13083068 0.008624013 -0.0647626 0.07275381
000180 82 bf 33 bc b2 34 f1 bc 6a c2 02 bc cf d8 00 bd
       -0.010970952 -0.029444072 -0.007980922 -0.031456765
000190 4e 00 be 3b c0 56 b8 bd aa 38 6c 3c 8a 05 8d 3c
       0.005798376 -0.09000921 0.014417807 0.017214555
0001a0 62 78 bc 3c d6 1c 2a 3d 55 c3 1d bd e7 b1 0b 3d
       0.023006622 0.041531406 -0.03851636 0.034105208
0001b0 48 2c d6 bb f9 c7 47 bb 56 f1 a1 bd f2 92 81 3d
       -0.0065360405 -0.0030484183 -0.07907359 0.06326856
0001c0 87 9f 75 bd fa 30 10 3b 45 0d c8 bc f8 5c 9e 3d
       -0.05996659 0.0022001849 -0.02442039 0.07732576
0001d0 73 8e a8 3b a8 27 9a 3d 5c 59 4e bd 42 3c 09 3b
       0.0051439344 0.07527095 -0.05037819 0.0020940457
0001e0 54 a1 ca 3b f9 a4 d3 3c 8e 9d db bc d4 e6 2b 3d
       0.0061837826 0.025835501 -0.026808526 0.04196818
0001f0 ef 42 f4 3c 18 86 17 3e 25 2e ff 3c 63 2d c4 3d
       0.029817073 0.14797246 0.031149933 0.09578969
000200 33 b2 94 3d 5f d6 1f bd 5f 3c 8f 3d be 81 79 3e
       0.07260551 -0.0390228 0.06993937 0.24365899
000210 ed 6d 9d 3d da 3b 95 bd de db 03 be 59 bf 33 3d
       0.07686982 -0.072868064 -0.12876841 0.043883655
000220 35 ff 30 bd c4 d4 93 bc 87 aa 36 bd 5e 10 79 3d
       -0.043212134 -0.01804579 -0.04459622 0.060806625
000230 56 f8 6f 3d 96 42 b0 3d 1a d4 37 bc 4a f9 74 3c
       0.05858644 0.0860645 -0.011220003 0.014952013
000240 22 fb c4 bc 2f 67 a6 3d 50 74 26 3e 41 50 0e bb
       -0.02404553 0.081251495 0.16255307 -0.0021715316
000250 78 4a 42 bd 54 c0 da bc 31 9d de 3b ae 18 4f 3d
       -0.0474343 -0.026703037 0.006793641 0.050560646
000260 62 1c 8c bc 80 05 96 3b e3 b7 e4 39 00 66 3a bb
       -0.017103378 0.0045782924 0.00043624555 -0.0028442144
000270 d8 e5 c3 bb f8 8f 2c bc 9f db 82 bd 2e 2b 7d bd
       -0.0059783272 -0.010532372 -0.06389546 -0.061808757
000280 b3 52 bf bd 78 d1 9f bc bb ad 82 bc 9e 30 1a 3d
       -0.093419455 -0.019509062 -0.015951982 0.03764402
000290 3f db cc 3e 95 83 e8 bc 46 f9 e2 bc db e9 c5 bd
       0.40011021 -0.028383056 -0.027706753 -0.09663745
0002a0 2c a1 c2 bc ac 93 81 3d 74 3b a1 3d f7 8d 40 3d
       -0.023758493 0.06326994 0.07872668 0.04701039
0002b0 71 da b0 3c 4f 15 30 3d da 54 84 3c 2b 35 c9 3c
       0.021588536 0.04298907 0.016153742 0.024561485
0002c0 57 38 e6 bb 65 e3 c9 bc 33 02 85 3d d4 26 18 bd
       -0.007025759 -0.024644563 0.0649456 -0.037146404
0002d0 7e 95 98 3c 30 64 6b 3b c9 90 3f 3a d6 2c af 3c
       0.01862597 0.003591787 0.00073076464 0.021383684
0002e0 95 f9 88 bc c7 82 37 bc 08 5b 8f 3c d2 77 5d 3c
       -0.016720572 -0.011200613 0.017499462 0.013517337
0002f0 07 54 d1 ba e5 2b f1 bb 4c 63 80 bc 93 12 93 bd
       -0.0015970477 -0.007359969 -0.015672348 -0.07181277
000300 c0 42 1e 3d b3 66 c0 3b a8 cd 2d bd 48 ac 67 bd
       0.038637877 0.0058716177 -0.042432457 -0.056560785
000310 68 4b 26 bd 1e b2 2f 3f 57 28 b7 3c a2 d0 99 bd
       -0.040599257 0.6863116 0.022358103 -0.07510497
000320 8d 10 d3 3d 34 f4 8f ba ee 06 ee bc 0e 0a 4f 3d
       0.10305891 -0.0010982812 -0.029056039 0.0505467
000330 6c 85 ee bc f1 e9 23 3d 88 ec f0 b9 32 02 40 bd
       -0.029116355 0.040018026 -0.00045952597 -0.046877094
000340 cd 60 69 3b 34 b0 0c bd da b9 8d 3c d0 d9 8d bd
       0.0035610676 -0.034347728 0.017300535 -0.0692631
000350 e2 7c b9 3c 9f a9 99 bd bc df 15 3d cb c8 9f bd
       0.022642557 -0.07503056 0.036590323 -0.0780197
000360 d2 c9 7d 3d 6f fc bc 3c c7 0e ad 3c 9f 31 9d 3c
       0.06196005 0.023069588 0.02112521 0.0191887
000370 69 54 ce bc a3 91 a9 bc 97 e7 50 3c 27 c9 9c bc
       -0.025186734 -0.020699328 0.012750528 -0.019138886
000380 cc 38 d1 bd 05 78 b2 bd 2e f3 52 bd 3f 07 92 3d
       -0.10215911 -0.08714298 -0.051501445 0.07130288
000390 82 92 06 3d 8b ba 8f 3d fe 43 a2 bd 5f d6 1c bd
       0.032854564 0.07018002 -0.07923125 -0.038290378
0003a0 34 25 99 3d ba f8 d5 3c fc bf 8b 3c 36 a4 f5 3d
       0.07477799 0.026119579 0.017059319 0.119942114
0003b0 5d 92 f0 bd f2 b4 53 3d ba 01 f0 3d 49 81 5f 3b
       -0.117466666 0.051686235 0.11719079 0.003410416
0003c0 80 6b bb bd 06 07 d5 bd 69 c3 a2 bc fc 76 f1 bc
       -0.091513634 -0.1040173 -0.01986857 -0.029475681
0003d0 d9 1d e6 bd 27 e9 fb 3d ad b8 b2 3c 50 37 93 bc
       -0.11236162 0.1230033 0.021816576 -0.017970711
0003e0 10 ed db bd ca d7 93 bd 98 1c 84 3c f4 51 ed 3c
       -0.107385755 -0.07218893 0.016126916 0.028969742
0003f0 2d 2a 75 bd 94 e9 98 bd 02 00 97 3c 43 45 7f 3d
       -0.059854675 -0.074664265 0.01843262 0.062321912

fcs1.bias f4 [128]
000000 62 95 af bd e4 ef 5f be e9 d7 31 3e 33 fa 9c 3c
       -0.085734144 -0.21868855 0.1736752 0.019162273
000010 87 a9 b3 bc 2b a6 38 be 10 1c 3f 3e 24 de df bd
       -0.021931423 -0.18032138 0.18663049 -0.10931042
000020 27 22 7c 3d e4 e9 50 bd 19 d3 89 ba 2b 1b e8 3d
       0.061556008 -0.051004305 -0.0010515183 0.11333307
000030 42 14 99 bc 21 e5 9b bd 15 47 2f 3e de 96 87 be
       -0.018686417 -0.07612062 0.1711696 -0.2648229
000040 fb 7b 14 3e 19 36 7c bd 43 6b 15 be cc 31 f5 3d
       0.1450042 -0.06157503 -0.14591698 0.119723886
000050 78 9a 8a 3c 68 26 06 be 91 94 43 3e 37 a6 93 bd
       0.01691936 -0.13100588 0.19099642 -0.07209437
000060 c8 76 1c 3e 88 61 c1 bd 28 e0 1c 3e 15 0d 8a bc
       0.15279686 -0.09442431 0.15319884 -0.016851941
000070 16 69 a1 3c eb 65 ff 3d ff 3e a8 3c 59 90 cd bd
       0.01970343 0.12470611 0.020537851 -0.10037298
000080 54 e8 16 3c 45 6f bb 3d 8b 00 87 3d 5a 40 51 3e
       0.009210665 0.09152082 0.065919004 0.20434704
000090 ed d6 a0 3d fd fc 16 be 8f b6 c1 bd f4 37 96 3d
       0.07853494 -0.14744945 -0.094586484 0.07334891
0000a0 8d 03 7c bd 82 1e bf 3d 7b 79 be bd 9f 27 22 bd
       -0.061526824 0.09331991 -0.09300514 -0.039588567
0000b0 43 f2 1d be a6 6d 0d 3e cf eb 1b 3e 1b e9 ce 3d
       -0.15424447 0.13811359 0.15226673 0.10103055
0000c0 18 40 d6 bd 95 93 4e bd 3a ce 01 be 1c 05 13 bd
       -0.10461444 -0.050433714 -0.12676325 -0.035893545
0000d0 75 a2 43 3e 8c 44 05 be f4 fb 1a bd 8b 4c f8 3d
       0.19104941 -0.1301443 -0.037837937 0.121239744
0000e0 71 8c d2 3c 23 a0 d7 bd 94 97 81 bd cb f3 7b bd
       0.025701733 -0.105285905 -0.06327739 -0.061511796
0000f0 38 bc f8 3c 3d 8b a7 3c e7 99 26 bd d5 a5 58 3e
       0.030363187 0.020452136 -0.040674116 0.2115701
000100 cb d0 75 3c 48 e6 5e 3d fe 91 8c bd 0d 37 9b 3d
       0.015003393 0.054418832 -0.06863783 0.075788595
000110 e8 3c 54 bc af 7a 93 bc 6e 97 b9 3d a9 61 d2 bd
       -0.012953974 -0.018002836 0.09062086 -0.102725334
000120 46 3a 12 3d 17 de cd 3d 46 a7 39 be 1a 2d 9c bd
       0.035700105 0.10052126 -0.18130216 -0.0762579
000130 a2 d3 9e 3d 1f f7 a1 3d 7a 9e c6 3b ae 94 32 3d
       0.077552095 0.07908463 0.0060613723 0.043598823
000140 02 5c 0c be 3e 03 3e 3e 43 06 b5 bd 0b 2a 7e bd
       -0.13706973 0.18555924 -0.08839085 -0.062051814
000150 ee c0 f9 3d 37 06 33 be e9 a7 28 3c c1 97 2c bd
       0.121950015 -0.1748284 0.010293939 -0.04213691
000160 b5 ec 58 bd f4 78 b6 3d fb a8 70 be aa 9b df bc
       -0.052960116 0.08909789 -0.23501961 -0.027295906
000170 3c 91 91 bd 49 79 6f 3e ef f7 0f 3e c8 e4 07 be
       -0.071077794 0.2338611 0.14059423 -0.13270867
000180 cb 87 09 3e 60 0c 7f b8 13 ef 5b 3e c6 34 93 3d
       0.13430707 -6.0808263e-05 0.21477918 0.071878
000190 d8 63 19 be c7 a8 0b 3e 21 a9 30 bd 68 7e 01 bd
       -0.14979494 0.13638602 -0.043130044 -0.03161469
0001a0 10 15 d0 3d 7d 5f 68 3e 2f 20 d3 3c a6 be 3c be
       0.10160267 0.22692676 0.025772182 -0.18432102
0001b0 03 72 86 bd 42 4f 10 3d 38 c7 99 bd 52 8d 34 bd
       -0.06564715 0.035231836 -0.07508701 -0.044080086
0001c0 f0 72 44 be 2a c9 26 be 44 27 bf bd 1d 0f c8 3d
       -0.1918447 -0.16287675 -0.09333661 0.09768508
0001d0 3f aa cb 3d 02 54 58 3e 27 4c fc 3d e8 4e 89 bc
       0.09944581 0.21125796 0.123192124 -0.016761258
0001e0 ab f1 d5 3d de e0 99 3d b9 e9 ea bd 64 e4 08 3e
       0.10446485 0.07513593 -0.1147036 0.13368374
0001f0 bd 41 e2 bd dc 40 8e 3d 0e a3 f0 bd 2a 3c 5c bc
       -0.11047695 0.06945965 -0.1174985 -0.013442079

fc2.weight f4 [128, 132]
000000 1f 4b 79 3c 49 4e 20 3c bc 2b 13 3d 37 2a 97 bd
       0.015215664 0.00978429 0.03593038 -0.07381099
000010 05 78 c3 3d 39 9d 2a 3d 13 69 6c bc 97 15 09 bc
       0.09544376 0.041653845 -0.0144293485 -0.008366964
000020 46 c8 44 bd 8f 93 0b bd 2a 93 b7 3d ed b2 fa 3c
       -0.048042558 -0.03407627 0.08963616 0.030602897
000030 bc 1a 77 3d 1b ee 90 3d ec 34 e9 bb 17 21 6f be
       0.06032823 0.07076665 -0.0071169045 -0.23352467
000040 e9 20 ac 3d 15 8a a3 bd 88 56 c0 bd f0 c4 09 3c
       0.084047146 -0.079853214 -0.093915045 0.00840877
000050 f6 d3 c4 3d 3f 3e 5f 3d 26 fa 91 3d a2 c0 77 3c
       0.09610741 0.054502722 0.0712779 0.015121611
000060 39 88 48 bc 75 ec 28 3d e9 0b 84 3d 54 80 32 3d
       -0.012239509 0.041241128 0.06447584 0.043579414
000070 a4 18 80 3d 44 65 22 3d 1e 67 a9 3d 7e 3f b0 bc
       0.062547 0.039647356 0.08271621 -0.02151465
000080 ce 56 e7 3b 9d 16 04 3d bf 5e 0d 3e 13 00 a5 3c
       0.0070599085 0.03224813 0.13805674 0.020141637
000090 6b b0 4b 3d 4c 03 a9 bd 66 4f 23 bd 86 55 0a bd
       0.049728792 -0.08252582 -0.039870642 -0.033772968
0000a0 35 95 ea 3a 2c b2 b4 3c 70 1c 39 3d eb cc 81 3d
       0.001789725 0.022057615 0.045193136 0.06337913
0000b0 c8 46 a0 bd 8a 67 ff 3c e2 a7 bc bc f3 4e 7a bd
       -0.078260005 0.031177301 -0.023029272 -0.061110448
0000c0 60 83 d9 bd 5a 79 93 3d 54 40 2a bc 8d d0 ae 3d
       -0.10620761 0.0720088 -0.010391314 0.08535872
0000d0 d1 2f 0c 3e 7e 39 10 3c 09 ba 79 bd 3a 60 39 3d
       0.13690116 0.00880277 -0.060968433 0.045257784
0000e0 fa 77 b5 bd ed 6d f6 3c 86 b7 ea bc f8 87 24 bd
       -0.08860774 0.030081714 -0.028651964 -0.040168732
0000f0 ca d8 b8 3d a9 8b 09 3d a7 f0 c2 3d ca 84 10 3d
       0.09025724 0.033580456 0.09518557 0.035282888
000100 c9 40 10 bc 4a a9 d1 3b 30 41 60 bc c9 83 5b bd
       -0.0088045085 0.0063983547 -0.013687417 -0.053592477
000110 9c dd 7b bc 74 50 cc 3d ba 8b 74 3d 58 9e e8 3d
       -0.01537266 0.09976283 0.059703566 0.11358327
000120 e9 9c 48 bc a8 55 9f 3c a4 f3 04 3b 6e f0 c1 3d
       -0.012244442 0.019450024 0.0020286823 0.094696864
000130 a6 ad 0c 3d 3d ca 1b bc b5 96 c1 3c ba 43 a6 bd
       0.03434529 -0.009508667 0.023631433 -0.081183866
000140 8f 2c 9d 3d 1c 3f ab 3d 2f a5 7e 3b 29 a2 c0 bd
       0.076745145 0.083616465 0.0038855781 -0.094059296
000150 9e c8 99 3d 0c 42 71 bd c5 73 ff 3d 33 04 2f bd
       0.07508968 -0.058900878 0.12473253 -0.042728614
000160 9c 0f bd 3c 33 be db 3d 49 75 d0 bb 67 23 b5 3c
       0.023078732 0.10729637 -0.0063616377 0.022111608
000170 14 11 c4 bc e8 6d f6 3d e8 19 e5 3d a6 7c c9 bd
       -0.023933925 0.12032682 0.11186582 -0.09838228
000180 b8 92 ec 3d 63 38 ed 3d a8 33 c2 3d dd 60 f3 3c
       0.11551422 0.115830205 0.09482509 0.029709274
000190 f9 6e 3e bd 48 e8 c2 3d 9c 22 be 3d 60 be 7b bd
       -0.04649255 0.095169604 0.09283945 -0.061460853
0001a0 4a 5d 59 bc 3c 76 f3 3d 23 bc aa bd 7b 52 f2 bc
       -0.013266871 0.11887786 -0.083366655 -0.029580345
0001b0 ca 4e 92 bd 6f 8b e2 3c 4c 04 c8 3c f5 13 bc 3d
       -0.07143934 0.027654378 0.024416111 0.09183494
0001c0 08 e2 a2 bd dc 87 33 3d b3 83 af bd 3c da c7 3b
       -0.07953268 0.043830737 -0.085700415 0.0060990136
0001d0 db 39 32 bd fb a2 35 3d 7f 79 0b bb 75 62 9c 3d
       -0.043512207 0.044344883 -0.0021282134 0.07635967
0001e0 c4 1f e1 3d fe 8b e2 3d 98 9e 4f 3d d0 8e ac 3d
       0.10992387 0.11061858 0.050688356 0.08425677
0001f0 7e 47 06 be a1 05 1f 3d 12 5b 11 bd 73 98 93 3d
       -0.1311321 0.038823728 -0.035487242 0.07206812
000200 4c f7 8a 3b 8f d6 8c bb 08 de d7 3c d8 43 b5 bb
       0.004240906 -0.0042980383 0.02635099 -0.0055317692
000210 12 61 c9 3d c5 55 25 bd c3 c2 e7 bc 63 42 1b bc
       0.09832968 -0.040365 -0.028291112 -0.009476277
000220 60 e3 6e 3d 4b e1 de 3d 09 af 88 3d 1c fd df bd
       0.05832231 0.10882815 0.0667401 -0.10936949
000230 ab fe f5 bc 49 bf ba 3c 00 12 ff 3d ef 61 c4 3d
       -0.030028662 0.02279629 0.12454605 0.09588992
000240 d0 d0 7b bd 4d bd c9 3c e1 a0 b9 3c 67 af 4a bd
       -0.061478436 0.024626398 0.02265972 -0.049483683
000250 31 18 0d 3c 6e 15 41 be aa 97 9d be 70 56 b2 3d
       0.008611725 -0.18855831 -0.30779773 0.08707893
000260 87 70 82 3d 72 95 37 bd 40 15 3f be 8a 61 f7 3b
       0.06369119 -0.044820257 -0.1866045 0.0075494694
000270 86 b1 18 be 6e 6f 2e bd 87 50 b5 3d a9 75 c1 bb
       -0.1491147 -0.042586736 0.0885325 -0.0059039188
000280 c3 8b 30 3c da 95 08 3d 9b 50 92 bc 94 c6 1e bd
       0.010775509 0.033346035 -0.017860701 -0.038763598
000290 9f 41 84 bd cb 0e 5f be 08 d9 2f bd a5 a7 f6 3a
       -0.06457829 -0.21782987 -0.042931587 0.0018818273
0002a0 60 89 87 3b bf ba 23 3d ee 00 fd bc 23 0f d3 3d
       0.0041362494 0.039973017 -0.030884232 0.103056215
0002b0 08 c7 99 bd 60 13 a2 bd 36 55 dd bd 9e 8f d6 3c
       -0.07508665 -0.07913852 -0.10807268 0.026191529
0002c0 bf cb 23 be af db bb 3d 80 1c 8a ba 4e 95 27 be
       -0.15995692 0.09172761 -0.0010537058 -0.16365549
0002d0 ec da bc bc a8 c2 de 3d c2 0b a2 bd 3f 90 41 bd
       -0.023053609 0.108769715 -0.07912399 -0.047256704
0002e0 95 2a b7 3d c1 7a 60 bc b7 a7 1b 3d a1 5b 37 3d
       0.08943669 -0.013701142 0.038001742 0.04476512
0002f0 8c 49 7b bc bf a2 b6 3b 53 87 ff bd f2 51 3f 3e
       -0.015337359 0.0055736 -0.12476983 0.18683603
000300 9c 39 85 3d 70 c6 98 bc 36 1f 19 3d b9 c5 68 3d
       0.06505129 -0.01864931 0.03738328 0.056829188
000310 07 53 62 bc aa 88 97 bd 61 11 87 3d 39 82 00 bd
       -0.013813741 -0.073991135 0.06595112 -0.03137419
000320 3c 5c bd 3d fd 24 b1 3b 06 be dd 3b 1f 23 08 bd
       0.09246108 0.0054060207 0.0067670373 -0.03323662
000330 95 a0 8e bd a0 62 b4 bd 44 2b 27 3c 0d a2 85 3d
       -0.06964222 -0.08807874 0.010203186 0.06525049
000340 d5 aa 4a bd 76 71 f3 bc 6e a5 e2 bd d5 4c 89 3d
       -0.049479324 -0.029717188 -0.110667095 0.06704108
000350 ec 45 df bd f3 e0 4d 3c ff ee ab bd 29 d0 0d be
       -0.109020084 0.012565839 -0.08395194 -0.13848938
000360 bc 41 cf bd aa 10 79 bd 7d 5c 95 bd 75 f8 db bc
       -0.1011996 -0.060806908 -0.07293031 -0.026851872
000370 b6 da a9 bb f3 ba 3d 3d a4 33 90 bd d4 69 eb 3d
       -0.005183543 0.046320867 -0.070411 0.114947945
000380 40 ca 78 3d e8 87 e7 bc 80 fe ef 3c 87 59 f5 bc
       0.060739756 -0.028263047 0.02929616 -0.029949917
000390 7d 24 dc 3b d1 1e 6d 3c b2 ae b6 3c 53 8e 92 bd
       0.006718217 0.014472679 0.022300098 -0.071560524
0003a0 cd a3 05 3e 9a 66 c7 bc 2c de a2 3d a3 62 be 3d
       0.13050766 -0.024340916 0.07952532 0.09296157
0003b0 18 a9 3a 3d 82 1c 43 bc a7 4c 7f 3c 59 b9 43 bd
       0.045571417 -0.011908652 0.01558224 -0.047784183
0003c0 70 8c 93 bc 32 15 9a 3d 00 41 ea bd cf 02 19 3d
       -0.018011302 0.07523574 -0.11438179 0.037356194
0003d0 ed fb 60 be 75 fb 98 3d f7 03 a5 bb 73 01 64 bc
       -0.21971102 0.074698366 -0.005035873 -0.013916361
0003e0 b6 c1 b5 3c 0d 62 1e be 90 4b db 3c fe 39 96 3c
       0.022187095 -0.15467091 0.02676943 0.0183382
0003f0 42 02 1c 3c 25 01 8d 3d 5e 1a 87 bd 41 00 6d bd
       0.009522023 0.06884984 -0.06596826 -0.05786157

fc2.bias f4 [128]
000000 7d b3 04 3e 6a b8 70 3d a2 6d ee 3c ed a4 d7 3d
       0.12959094 0.05876962 0.029105011 0.10529504
000010 2b fe de 3d 0a a3 6d 3d cd 90 34 bd 46 41 c6 bd
       0.108883224 0.058016814 -0.044083405 -0.09680419
000020 3d 18 a0 bd dd 2a 1f bd 09 e6 e0 bd 1b df c3 bd
       -0.07817123 -0.038859237 -0.10981376 -0.09564038
000030 e6 18 7b bb a6 0b ee bd 6a f0 eb bc e5 c6 12 3d
       -0.0038314401 -0.116233155 -0.028801162 0.03583421
000040 88 23 c3 bc c9 aa 65 3d c5 5f b5 bd da 44 b6 3d
       -0.023820654 0.056071077 -0.08856157 0.08899851
000050 78 62 2b bd 5e 4c 2b 3d af 59 83 bc 10 ef aa 3d
       -0.041841954 0.041820876 -0.016033975 0.08346379
000060 4d 00 0c 3c 4d ff 85 bc c6 2d 08 bb dc a9 a8 bb
       0.008544994 -0.016357088 -0.0020779236 -0.005147202
000070 a8 71 d7 3c 6f 86 d0 3d 08 f7 f0 3c 65 ad 31 3d
       0.026299313 0.10181891 0.029414669 0.043378253
000080 59 36 6d bd 20 fb 19 bd 8f 19 04 3e 8b 9e 4b 3d
       -0.057913158 -0.037593007 0.12900375 0.049711745
000090 1a 19 a3 3d 8a 46 b9 3c 55 1e df 3c d9 ab 28 3d
       0.07963772 0.022616643 0.027236143 0.04117951
0000a0 c3 b2 13 3d 9a 7a 97 bd 8e 76 18 3d 69 f5 ab bc
       0.036059152 -0.07396431 0.037222438 -0.020991044
0000b0 6f 3e 1a bd db e7 a0 bd 74 12 16 bd ef ad 6a bc
       -0.037657198 -0.07856723 -0.036638692 -0.014323696
0000c0 ca 92 b1 bd e5 c1 1e 3e 21 a0 a3 3c 04 a2 b4 bb
       -0.08670576 0.15503652 0.019973816 -0.005512478
0000d0 cb e6 fb 3d e5 70 fd 3d 4f 15 53 3c fe de 11 3e
       0.1229988 0.123750485 0.012883498 0.14245221
0000e0 87 9f 9c bd 7b f2 de bc 6d e4 60 bb ae 08 70 3d
       -0.07647615 -0.027215233 -0.003431584 0.058602028
0000f0 52 48 b1 3c 8a fc d3 3c 23 a5 b6 3c ab a8 e0 bc
       0.02164093 0.025877256 0.02229554 -0.027424177
000100 d1 6e de 3d 1d df 21 bd a1 9d 7f 3d e5 a6 04 3d
       0.1086098 -0.039519418 0.062406186 0.032385726
000110 19 aa 86 bb b4 54 0f bd 51 7d 03 bd bf 92 3d 3c
       -0.0041096327 -0.03499289 -0.032101933 0.0115706315
000120 97 a5 ca 3d fd f2 4d 3e e9 bc 5d bd 9c 86 44 3d
       0.09894865 0.20112224 -0.054135237 0.047979936
000130 68 47 59 3d 42 c4 82 bd c4 94 c1 3d 31 5a f7 bc
       0.053046614 -0.063850895 0.09452203 -0.030194374
000140 1e 81 29 3c ae db b7 bd ce 0b 47 bc ac 7d 04 3e
       0.010345725 -0.089774475 -0.012148811 0.12938565
000150 6c e7 3c 3d c0 bf 82 bd 6c c7 ad 3c 0c 8c 0c 3e
       0.04611914 -0.0638423 0.021213256 0.13725299
000160 8e cf e4 bc 87 1f be bb 45 25 4b bd 2c 02 c6 bd
       -0.027931001 -0.005802098 -0.04959609 -0.09668383
000170 29 98 b6 3d 3c c4 36 3e 6a f2 68 bc 88 ce 26 3d
       0.08915741 0.17848295 -0.014217952 0.040724307
000180 13 62 6c bd c4 b8 04 3d fc 25 b6 3d 17 9b a6 bd
       -0.05771072 0.03240277 0.08893964 -0.0813505
000190 16 db 71 3d 11 07 4a 3c 19 80 b2 3d 6e ec 0b 3e
       0.059046827 0.012330786 0.08715839 0.1366441
0001a0 ce 65 e7 bd c3 b4 59 bd e6 ea 71 bd a6 04 ec bb
       -0.112987146 -0.053150903 -0.059061907 -0.0072027026
0001b0 fd fb 9b bd b1 99 00 3d 94 0d d9 bd d0 12 04 be
       -0.07616422 0.03139657 -0.10598293 -0.12897801
0001c0 a8 cf d9 3d bf b7 c4 3d a1 b8 78 bd a9 d1 dd 3c
       0.106353104 0.09605359 -0.06072295 0.027077513
0001d0 49 be 9b 3c 5a 81 cb bc 36 2c 90 3c 86 f5 ae bc
       0.019011633 -0.024841953 0.017599206 -0.02135731
0001e0 89 6b d5 bc b7 3a 00 bd 70 dc 2b bd 75 84 88 bd
       -0.026052253 -0.031305995 -0.041958272 -0.06665889
0001f0 bd fd 09 3e 63 02 e8 3c 8c 42 5c bd 90 bd 71 bb
       0.134757 0.02832145 -0.0537744 -0.003688667

fc3.weight f4 [1, 128]
000000 1f bf c8 3d 4a 28 33 3e ee 0e dc 3d 90 3f ab 3d
       0.098020785 0.17495838 0.10745035 0.08361733
000010 52 ee 7e 3e 49 86 b8 bd 7f fe 9b be 2e a2 78 be
       0.248956 -0.09009988 -0.30467603 -0.24280617
000020 c3 ac 00 be a9 b5 e2 3d 50 33 40 be a1 8b 07 be
       -0.12565903 0.11069805 -0.18769574 -0.13236858
000030 86 50 f5 3d f7 7e f6 bd fd 55 c1 3d 65 e2 f6 bd
       0.11978249 -0.12035935 0.09440229 -0.120549
000040 77 48 aa 3d 94 bd 9f be 20 4e cd bd a5 63 25 3e
       0.08314603 -0.31199324 -0.10024667 0.16151293
000050 ea bf d2 3d e9 46 1a be 64 a5 19 3d 07 5b b5 3d
       0.10290511 -0.15066113 0.037511244 0.08855253
000060 c8 39 17 be 33 d1 92 bd c0 7d f5 3d a3 56 40 be
       -0.14768136 -0.07168808 0.119868755 -0.1878305
000070 e3 77 d8 3d 88 6d de 3d 64 7e 96 bd 25 20 67 bd
       0.105697416 0.10860735 -0.07348326 -0.05642714
000080 f3 2f 3c be 91 ae 69 be 4e bb d6 3d b4 1a 84 3d
       -0.18377666 -0.22820498 0.10484944 0.06450406
000090 e4 6c d8 3d 6a 87 af 3d 31 88 ba bd 20 5b 27 3e
       0.10567644 0.0857075 -0.09108008 0.16343355
0000a0 92 d6 dc bd 24 9f 91 be fc 05 88 be 05 71 d5 3d
       -0.107831135 -0.28441727 -0.26567066 0.104219474
0000b0 b7 02 cd 3d 29 8d d7 bd c2 d4 b5 3d 7e 24 fd bd
       0.100102834 -0.10524971 0.08878471 -0.12360476
0000c0 a6 7b 8d bd f3 3a b2 3d b1 6e 9f bd 9c 05 8f be
       -0.0690835 0.0870265 -0.077847846 -0.27933967
0000d0 c0 1b dd 3d ab 2a aa 3d c1 8e b1 bd 72 1a 52 3e
       0.107963085 0.083089195 -0.08669806 0.205179
0000e0 1c c3 27 be 28 69 6d 3d 46 a7 8d be 63 96 07 3e
       -0.16383022 0.057961613 -0.27666682 0.13240962
0000f0 5e c9 26 be b6 f0 f8 3d 5c a6 1b 3e a5 b3 3d 3e
       -0.16287753 0.12155287 0.1520018 0.1852556
000100 67 1a 79 3d 4d dc 28 be da a5 5f be 4e 63 a0 3d
       0.060816195 -0.16490288 -0.21840611 0.07831441
000110 48 89 d2 3d e4 95 db 3d d7 ad fe bc 40 6c c8 3d
       0.102800906 0.10721949 -0.031088753 0.09786272
000120 f4 2f ad 3d bd 1b ac 3d 48 45 c6 bd f7 9b 4f be
       0.08456412 0.08403728 -0.09681183 -0.2027434
000130 8b a7 9d be 30 95 ec bd 30 ea c9 3d 0c 3c f1 bd
       -0.30791888 -0.11551893 0.09859121 -0.11779031
000140 0a 8f 28 be 79 7a 3e be 04 9e ca bd 68 c5 05 3e
       -0.16460815 -0.18601407 -0.0989342 0.13063586
000150 71 0a 06 be a6 bf f1 bd 83 ce 48 be 80 48 7f 3e
       -0.1308992 -0.11804132 -0.19610028 0.2493
000160 2f b2 ca bd ec ac 15 be 98 78 0b be 8e 28 bc bd
       -0.09897267 -0.14616746 -0.13620222 -0.09187423
000170 8b 64 da 3d 85 20 b6 3d a9 b7 b3 3d b6 99 03 3e
       0.10663708 0.08892921 0.08775265 0.12851605
000180 0d 6b 70 be d2 b9 22 be 73 f3 a3 3d ef 67 88 3e
       -0.23478337 -0.15891197 0.08005419 0.26641795
000190 aa 18 05 3e 50 90 c4 bd 6f 4f 7a 3e cd c8 40 3e
       0.1299769 -0.09597838 0.24444364 0.188266
0001a0 5e bc 0e be 95 73 79 be f5 c9 60 be ac f6 a3 3d
       -0.13939044 -0.24360497 -0.2195204 0.08006033
0001b0 bf a2 7f bd d4 bd 0f 3e 84 9f 02 be a8 ad 08 be
       -0.062411066 0.14037257 -0.12756163 -0.13347495
0001c0 e5 e5 ea 3d d7 82 a5 3d d4 e1 9d bd 58 4b dc 3d
       0.1146963 0.08081596 -0.07709089 0.10756558
0001d0 53 e3 b2 3d e1 e0 88 be 20 4a a5 3d b8 91 42 be
       0.08734765 -0.2673407 0.08070779 -0.190009
0001e0 05 d8 27 be 00 29 a2 bd 15 43 7a bd f3 c8 28 be
       -0.16390999 -0.079179764 -0.06109913 -0.16482906
0001f0 9f 51 9f 3d 68 4a eb bd 96 a9 3b bd 0c 2d 94 bd
       0.0777924 -0.11488801 -0.045816027 -0.072351545
