checkpoint_actor.pth (torch_old, 86517 bytes, 6 tensors)

fc1.weight f4 [128, 33]
000000 69 d8 32 3e c2 dc b6 3d 1b 05 9e 3e 0f b3 ae bd
       0.17465366 0.08928825 0.3086327 -0.085302465
000010 47 3c 70 3e 89 cd 9a bd e6 65 e7 3d 78 18 1d be
       0.23460494 -0.07558734 0.112987325 -0.15341365
000020 e7 5c 3e 3c aa 3d 8d 3d 4c a2 74 3d d4 09 ba 3d
       0.011618829 0.06896527 0.05972509 0.09083906
000030 3c 25 be 3d 35 e8 f9 3d cb 7c 07 bd dd 74 9f 3c
       0.09284446 0.12202493 -0.033077996 0.019464904
000040 80 1e 02 3d 33 d7 96 3d f4 4b ed bc 1b be e1 bb
       0.03176737 0.07365265 -0.028966881 -0.0068891174
000050 81 7f f1 bc fc 84 2a be 0f 8f dc 3c a3 c2 27 bd
       -0.029479744 -0.16652292 0.026923684 -0.040957104
000060 91 fa 09 bd 7d e5 72 3c 6f 8b 36 3d 00 13 a9 3b
       -0.033686224 0.014825222 0.044566568 0.0051597357
000070 42 03 a5 bd fa 0b 31 bd ec 55 d0 bd 10 09 86 bc
       -0.08057262 -0.043224312 -0.10172638 -0.016361743
000080 bc 71 f5 3a c8 98 30 3e 86 46 e3 bc 15 5b 5d 3d
       0.0018725912 0.17245781 -0.02774359 0.05404194
000090 2e 71 5e 3d 31 fa 1f 3c 3d 1b 0e be 73 7e 04 be
       0.054307155 0.00976424 -0.13877578 -0.12938862
0000a0 fa 96 4a be d1 fd 00 3e dd e2 8e bd 64 47 29 3c
       -0.19784155 0.12596823 -0.069768645 0.010331962
0000b0 54 62 2b 3c 96 9b 73 3d 94 ba 0b be f3 22 ad bd
       0.010460455 0.05947455 -0.13645393 -0.08453932
0000c0 2a 5b 36 be 2c 45 9c 3d c0 72 19 3d 30 a4 c2 bd
       -0.17808214 0.07630381 0.03746295 -0.095039725
0000d0 ea 30 67 bd 7e b4 8f 3c c2 79 e9 3d 68 56 83 3d
       -0.056443132 0.01754212 0.114001766 0.06412965
0000e0 51 db bf bd 35 03 20 3d 7c 2d bf 3d 30 bb ac 3d
       -0.09368003 0.03906556 0.09334847 0.08434141
0000f0 90 96 2d be a0 43 99 3e 4f 19 a1 3d ed ab e8 3d
       -0.16951966 0.29934406 0.07866155 0.11360917
000100 44 3b 06 3d c5 fb 25 3f 05 b7 af bd a1 88 ec 3c
       0.032771364 0.64837295 -0.0857983 0.028873743
000110 0a b4 83 bd 0d b0 13 be a8 9d 41 bd c6 c2 63 bc
       -0.06430824 -0.14422627 -0.047269493 -0.013901418
000120 0b c1 78 3c c7 ba e0 3d 27 78 6d be ce ab dd 3d
       0.015182744 0.10973125 -0.23190366 0.10823785
000130 ae a3 67 3d f8 39 bb bc aa 1e 5f be 0c 7d 62 be
       0.05655258 -0.02285479 -0.21789041 -0.22118014
000140 cb 28 1b 3c 18 80 92 3c bd 86 bd 3b 62 0e 33 bc
       0.009470175 0.017883345 0.0057838843 -0.010928722
000150 b2 e5 0b be 10 d9 56 3d a8 d3 0d bd 16 6f 69 be
       -0.1366184 0.0524531 -0.03462568 -0.22796282
000160 93 cc 81 bd 54 e3 94 3d 64 0c 14 3d d4 88 9c bd
       -0.063378476 0.07269922 0.03614463 -0.076432854
000170 6c 9f 08 be f6 aa 13 bc 31 05 6e 3d d0 7e 6e 3c
       -0.13342065 -0.009012928 0.05811042 0.014556602
000180 88 6d d2 bd a0 3b 00 3b 31 2a 33 3d 99 b3 32 bd
       -0.10274798 0.001956679 0.04374141 -0.04362831
000190 b0 4e 4a bd e8 79 5c be 06 00 15 3c f0 89 48 be
       -0.04939145 -0.21530879 0.009094244 -0.19583869
0001a0 dd 2b 58 bd 31 2d 1c 3e b2 b9 50 bc c6 30 44 bd
       -0.052776206 0.15251614 -0.012739586 -0.047898076
0001b0 c2 b4 e2 bc d4 d2 46 bd 84 3e fa 3d 7d a9 74 be
       -0.027674083 -0.048540905 0.12218955 -0.2389278
0001c0 c1 c7 a1 3c a6 ab ff 3d 17 51 73 bd 9f 3f 10 be
       0.01974857 0.12483911 -0.059403505 -0.1408677
0001d0 13 fc 4c bd 63 58 d2 3d 24 38 0c be 04 28 c1 3d
       -0.050045084 0.10270765 -0.13693291 0.094314605
0001e0 77 ed ad bd bf 8d 93 bc ec 97 8d bd 50 28 39 bb
       -0.084925584 -0.018011926 -0.069137424 -0.0028252788
0001f0 0a b2 3e 3d 99 33 02 be 71 56 07 3e be 4c db bd
       0.04655651 -0.12714995 0.13216569 -0.10707997
000200 96 c3 2a 3d 4d d9 f0 b9 84 a9 a7 bc 06 b1 4d bf
       0.04169043 -0.0004593827 -0.020466574 -0.8034824
000210 d0 1e 44 be 9c e4 9a 3d fa d5 63 3c 1e 85 b2 3d
       -0.19152379 0.07563135 0.013905996 0.08716796
000220 5c 1b 44 be e0 3e 14 3e 4a 35 fa bc 5e fd 02 be
       -0.19151062 0.1447711 -0.030542988 -0.12791964
000230 07 7f b5 bd de 63 e4 3b bf 70 a3 3d 4a f7 11 be
       -0.08862119 0.006969913 0.07980489 -0.1425449
000240 aa aa a5 3d 66 4b 36 bd 34 1f de bb 7b 44 13 3e
       0.08089192 -0.0445055 -0.006778622 0.14381592
000250 e0 bf 6e 3d 84 d1 1e bd 1c e2 b0 3d 11 16 87 3c
       0.058288455 -0.03877403 0.08636877 0.016490014
000260 d2 0f 7d bc b7 2f 0c be 7b 5c db bd a1 84 b7 bd
       -0.015445666 -0.13690077 -0.107109986 -0.08960844
000270 3a a4 06 bd 7c d7 8f 3d 53 4a aa bd 08 a5 82 be
       -0.032871462 0.07023522 -0.083149575 -0.25516534
000280 ab 51 23 be c0 38 56 3b 6a bf 82 3e a6 fc 68 3d
       -0.15949123 0.0032687634 0.25536662 0.05688157
000290 c2 95 2a bf 45 1d a5 3d 82 f2 17 be b7 e0 a0 bc
       -0.6663476 0.08062223 -0.14838603 -0.019638402
0002a0 54 3f 1d 3d 0c 68 2b 3d 44 1c eb 3d 33 a9 bd 3d
       0.038390473 0.041847274 0.114800006 0.09260788
0002b0 60 de 1e bb 2e b8 f0 3d 3a 1e 2d 3c 94 29 84 3c
       -0.0024241433 0.117538795 0.010566289 0.016133107
0002c0 2d 2e cc bd cf 38 30 3d ac 7b 8b bd bc 0a 64 3c
       -0.09969745 0.043022927 -0.06810698 0.013918575
0002d0 e5 11 98 3c 25 09 d1 3d 27 fa 3a bc 07 7e 0b 3e
       0.01856322 0.10206822 -0.01141218 0.13622294
0002e0 4c 4d 27 bd 9a 85 31 bd 9f c5 78 3d a9 4b 06 bc
       -0.0408452 -0.043340303 0.06073534 -0.00819675
0002f0 ff 51 05 3e 05 4b c0 3d 1d 25 4b 3d 54 10 5b 3e
       0.1301956 0.09389309 0.04959594 0.21392947
000300 4e c1 93 bd 89 6a 03 be 53 b8 76 bd ac ae 84 3d
       -0.07214604 -0.12833609 -0.06023438 0.064786285
000310 cc cc 93 3c df ad 01 3f 3a 1b ce bd 70 79 17 3e
       0.01804199 0.5065593 -0.10063787 0.14792418
000320 9e c1 b8 3c b6 b7 04 be 97 14 8d bd 43 03 41 be
       0.022553261 -0.12960705 -0.06888693 -0.188489
000330 e7 08 09 3e a7 3b 54 be 5f 4a 06 3d 49 b0 a2 bd
       0.13382302 -0.2072588 0.03278577 -0.0794378
000340 92 fc 0c bd 91 a9 a4 3d e9 a1 f8 bc 82 fd 61 3c
       -0.034420557 0.08040155 -0.030350642 0.013793351
000350 fc c3 4f 3d c6 08 a7 bb db 74 9f bb 6c 43 60 bd
       0.050724015 -0.0050974814 -0.004866225 -0.0547518
000360 92 c1 d1 3d 70 43 05 3d 90 15 23 3d f7 6a 91 3d
       0.10241999 0.032535017 0.039815485 0.0710048
000370 5a 12 3b bc 09 83 89 3c 64 06 0c bd d9 8f f8 3c
       -0.01141795 0.016786115 -0.034185782 0.03034203
000380 6a 0b 57 3e 33 d0 bb 3b c9 ab 43 3e 2a 08 29 3d
       0.21000448 0.0057316064 0.191085 0.04126755
000390 b8 49 0e be 16 c7 41 bd d1 93 8b be 71 92 c3 bd
       -0.13895309 -0.047309004 -0.27261212 -0.09549416
0003a0 9e 48 a0 bd 6b 54 e2 3d 99 48 cd 3c 37 ce f9 bd
       -0.07826351 0.11051258 0.025059031 -0.121975355
0003b0 7c 36 75 bd 6d fa 65 3e c4 00 50 3c 0a 5f 88 3d
       -0.059866413 0.22458811 0.012695495 0.06658752
0003c0 58 ee 33 bd 91 d8 1d be f8 8c 34 3d cf dc f1 bc
       -0.043928474 -0.15414645 0.04407975 -0.029524235
0003d0 f3 9c 8b 3d 66 71 8c 3d a3 ec 64 be cd b8 07 bd
       0.06817045 0.068575665 -0.22355895 -0.033135224
0003e0 cb e2 12 3d 21 19 f7 3b de 00 81 bb 1f 7e ec bb
       0.035860818 0.0075408374 -0.003936871 -0.0072171832
0003f0 3d 3d f0 bb 51 1c da bb 2e 38 01 3c 74 2c e1 bc
       -0.007331519 -0.0066562076 0.007886929 -0.027487017

fc1.bias f4 [128]
000000 2d 0e 07 be ed 36 07 bd f4 2e 14 bc 9c d1 a7 bd
       -0.13189001 -0.033011366 -0.009044398 -0.08194277
000010 12 b6 89 3e 69 31 0d 3e 2e 59 af 3d 26 34 b0 3d
       0.2689672 0.1378838 0.085619316 0.086036965
000020 64 81 35 3e d5 c6 e8 3b bd e5 a1 3c 3c 38 3b be
       0.1772514 0.0071037808 0.019762868 -0.1828317
000030 65 f3 83 3e ef b5 e4 bd cc 17 2b bb d6 e8 c6 3d
       0.25771633 -0.111675136 -0.0026106713 0.09712379
000040 83 a4 8a bd e7 b8 d1 3d 75 7a 21 3d 08 f3 00 3e
       -0.06769659 0.102403454 0.039423425 0.12592709
000050 29 12 36 3e 90 5b 93 3e 5c 06 22 bd 44 f8 73 bc
       0.17780365 0.28780794 -0.039556846 -0.014890734
000060 8d 6d a9 bd 3b 8e c1 bd 43 bf 02 3e cb 79 10 3d
       -0.08272848 -0.094509564 0.12768273 0.0352724
000070 f8 9f 1c be 2b 7f 27 3e cd f9 6d 3e a7 27 6f 3d
       -0.15295398 0.16357104 0.23239823 0.058387425
000080 6a 25 1f 3d 48 a0 e2 bd 82 e7 f9 3d 04 83 10 be
       0.03885404 -0.110657275 0.1220236 -0.14112478
000090 a5 ae 14 3d df c7 22 3d b7 06 96 bd 1f 9f 29 3e
       0.036299367 0.039741393 -0.073254995 0.16564606
0000a0 0a a7 4c 3e 3c 33 3f 3d 7c 0b 27 3e ce 79 b2 3d
       0.19985595 0.04667972 0.16312975 0.08714639
0000b0 a2 6b 49 3e 06 7c 1e be 68 88 64 3e 3c c6 5f be
       0.19669965 -0.15476999 0.2231766 -0.21852964
0000c0 d3 cd e4 3b e1 e2 85 3e 7c 59 12 3e c3 44 c5 3d
       0.006982544 0.26149657 0.14291948 0.09632256
0000d0 0d d5 0a bb ac 34 95 3d f1 00 2b 3d d7 a2 98 bd
       -0.0021184117 0.07285437 0.041748945 -0.07452934
0000e0 fa 73 2e 3e 9e 1f c9 3d e4 34 51 3d e7 eb 95 bd
       0.17036429 0.098204836 0.05107583 -0.073203854
0000f0 76 55 19 be 6c f4 63 3d 67 ac 21 be ee e4 fb bd
       -0.14974007 0.05565302 -0.15788423 -0.12299524
000100 e6 da 8a bd d0 4f 25 3e e4 2b 7a be ca 23 c9 bd
       -0.06780033 0.16143727 -0.24430805 -0.09821279
000110 43 d1 0c 3e b7 af 50 bd a1 47 97 bb 9b 59 0b be
       0.13751702 -0.050948825 -0.004616693 -0.136084
000120 5c ad a3 3d a8 c4 28 3d fc 74 9c bc b4 f9 52 be
       0.0799205 0.04120317 -0.019098751 -0.20603067
000130 8a bb 72 3e 87 39 10 be eb e9 78 3e 30 e8 e6 3d
       0.23704353 -0.14084445 0.24307983 0.11274755
000140 fc 83 f3 bd f4 ff d2 3d 07 fa 04 3d a3 b2 9e bd
       -0.118904084 0.103027254 0.032465007 -0.07748916
000150 a6 f3 02 3d b3 07 72 bd e6 cf 76 3d 94 31 85 bd
       0.031970643 -0.059089374 0.06025686 -0.06503597
000160 c6 ca fb 3d 6f 0b 79 3e 46 22 3b 3e 2d 03 af bd
       0.12294535 0.24320768 0.18274793 -0.085455276
000170 8a 99 dd ba 40 c0 10 3d 43 9b 31 bd 2c 2e ff 3c
       -0.001690672 0.035339594 -0.04336096 0.031149946
000180 22 ba af 3d ec 22 af 3d 62 e6 b8 3d 09 72 f3 bd
       0.08580424 0.08551583 0.09028317 -0.11886985
000190 10 95 70 3e 27 2f b9 bd 3d ff 5e 3d d8 0a 80 3e
       0.23494363 -0.09042197 0.054442633 0.25008273
0001a0 a3 bd 96 bd d0 b2 aa 3d 64 35 00 3e 12 49 90 3c
       -0.07360389 0.08334887 0.12520367 0.017612968
0001b0 dd fb 58 be 21 13 ca bd be 17 16 be be d1 a4 bd
       -0.21189828 -0.0986693 -0.14657494 -0.08047818
0001c0 be 57 0b 3e 8a e1 f9 bd a0 05 2e 3e fc d2 a0 3d
       0.1360769 -0.12201221 0.16994333 0.07852742
0001d0 20 0e df 3c f5 7a 6c 3e 56 a9 2b 3d f1 04 b3 3d
       0.027228415 0.2309378 0.04190954 0.08741177
0001e0 cf a8 04 3e 5e f2 e1 3d 76 ca 96 3e 15 cb 43 3e
       0.1295502 0.11032556 0.2945134 0.19120438
0001f0 dc 9c 09 be ff cd cb bd 59 f0 08 3e ef 32 b7 3d
       -0.13438743 -0.099514 0.13372935 0.08945262

fc2.weight f4 [128, 128]
000000 34 94 aa 3d 94 cb 04 bb f7 b1 bc 3d b3 d7 0a 3d
       0.08329049 -0.0020262944 0.092136316 0.033897113
000010 67 50 fb bc c6 55 28 3d 07 09 40 3c 1c 29 0e be
       -0.030677987 0.041097425 0.011720902 -0.1388287
000020 7e b2 c7 bd 01 4a 64 3c 10 14 38 3d db 55 cd 3d
       -0.097508416 0.0139336595 0.044941008 0.10026141
000030 83 85 17 3e 1e 34 1c be d9 97 20 be 3c a2 8b 3d
       0.14797024 -0.15254256 -0.15682925 0.06818053
000040 15 8e d0 bd 03 09 a3 3d df 73 4b 3d 76 5b c2 3d
       -0.1018335 0.07960703 0.04967105 0.09490101
000050 6c d3 c4 3c 9d 6e 4b bc 20 b9 c3 3c 7d 20 a6 bc
       0.024026595 -0.012416509 0.023891985 -0.020279163
000060 25 30 99 bd a0 86 01 be b8 e2 24 3e bc ac 0f 3d
       -0.07479886 -0.12649012 0.16102111 0.03507684
000070 23 ad 8e 3c 8e b6 e2 3c 89 80 20 be 78 9c 19 3d
       0.017416542 0.02767494 -0.15674032 0.037502736
000080 e0 6d d4 3d 87 79 1e 3c f1 82 6d 3e ef 57 4b 3d
       0.103725195 0.009672529 0.23194481 0.049644407
000090 99 20 32 bd 5b 61 55 3d ab f1 a9 bd f9 fe 18 be
       -0.04348812 0.0520948 -0.08298048 -0.14941014
0000a0 63 e3 be bd f6 94 1a 3e 24 5f d1 3d df 98 05 3e
       -0.09320714 0.15095887 0.10223225 0.13046597
0000b0 bf 08 db 3d 6a b8 ba bd b4 db 02 3d b4 19 15 3e
       0.106950276 -0.091172054 0.031947806 0.14560586
0000c0 64 da 01 3e 0d a4 fd bd ca 6d e5 3d c3 06 4c be
       0.12680966 -0.12384806 0.11202581 -0.19924454
0000d0 37 c4 b1 bd d8 d2 de bc 11 c9 37 3d 2a b1 d3 3d
       -0.08680003 -0.027200148 0.044869486 0.10336526
0000e0 90 23 12 3d a5 8c 4e 3e a7 56 3a 3c 25 86 f8 bd
       0.035678446 0.20170839 0.011373199 -0.12134961
0000f0 cb 47 0d bd 5a c5 4e 3d b5 26 f6 3d e9 5e c2 bd
       -0.034492295 0.050481178 0.120191015 -0.09490759
000100 8c b9 4a bc 83 11 2d bd a1 62 80 3d 84 0e 82 3c
       -0.012373339 -0.04225303 0.06268812 0.015876062
000110 00 3d 59 bd 3e 6c ad 3d de f7 8a 3e e1 6d 08 3e
       -0.05303669 0.08467911 0.27142233 0.13323165
000120 64 94 2b 3e 60 5c 09 bd 0e 76 08 3e b9 af 75 be
       0.16755825 -0.03353536 0.13326284 -0.23992814
000130 1a 27 1c 3b be c2 30 be 2a 2c 30 3e 19 ae 7c 3d
       0.0023827017 -0.17261788 0.17204347 0.06168947
000140 73 2e 44 3e 24 00 36 be 0f 68 f3 3c 58 8f ae bd
       0.19158344 -0.17773491 0.029712705 -0.085234344
000150 2f e8 4d 3c c9 04 ab 3c ff 3b 33 3e 59 28 39 bd
       0.012567564 0.020876305 0.17503355 -0.045204494
000160 60 fe 53 be a6 ee ba 3c 1c 38 13 bd 83 83 d3 3b
       -0.20702505 0.022818875 -0.035942182 0.0064548864
000170 93 ab 1e be 83 7b 41 3c cc d9 18 3e 32 b8 5d 3d
       -0.15495138 0.011809233 0.14926833 0.05413074
000180 1f 5e d7 3d 21 cf cd 3d 56 ae 7a 3c 92 ef f8 bd
       0.10515999 0.10049272 0.015300354 -0.121550694
000190 b9 ad 76 3d 20 47 2b 3e b7 d0 91 bd a1 d7 73 3d
       0.06022427 0.16726351 -0.07119887 0.05953181
0001a0 56 d5 c2 3d de 09 dc 3d 3a d0 88 bd 1e 78 75 3d
       0.09513347 0.107440695 -0.06680341 0.059929006
0001b0 f2 23 2c be e7 87 16 be 93 51 6e bd 81 44 f7 be
       -0.16810587 -0.1470028 -0.058183264 -0.48294452
0001c0 7a 65 a9 bd 6a 88 2a 3d c6 46 0c 3e dc e7 23 3d
       -0.08271308 0.041634 0.13698873 0.04001604
0001d0 68 26 15 3d 8e 86 1e 3e 38 b8 d2 3d ff 02 03 3e
       0.03641358 0.15481016 0.10289043 0.12794112
0001e0 d8 3b 19 3e 4a a4 c5 bb 00 3b 13 3d 84 0f d6 3d
       0.14964235 -0.0060315477 0.03594494 0.10452178
0001f0 2a 35 56 3e 32 ea 87 3c 01 f0 09 bd 94 4a bd 3b
       0.20918718 0.016591165 -0.03367615 0.0057767127
000200 5e 19 ca 3d 21 3f be be 9e c1 46 3d 0a 53 e8 bd
       0.0986812 -0.3715754 0.04852449 -0.113439634
000210 95 87 3a 3d f4 fe 87 3b 29 96 2d bd 14 5b 36 be
       0.045539457 0.004150266 -0.042379532 -0.17808181
000220 30 49 c5 be 29 fa cb bd d5 fa 5c be c0 83 d4 be
       -0.385324 -0.09959824 -0.2158006 -0.41506767
000230 43 67 b1 bd e9 ec a1 3d 9a db 11 be 7c 70 b5 bd
       -0.08662274 0.07906515 -0.14243928 -0.08859345
000240 ce b0 ea bd 28 7d 36 3e 7b b3 84 bd af 37 17 3d
       -0.11459504 0.17821181 -0.06479546 0.03691834
000250 b5 8c 02 3e 02 4c e9 bd fa 3a 51 bd 03 2f d5 bb
       0.12748988 -0.113914505 -0.051081635 -0.0065058484
000260 2a 21 07 be 4c ea 32 3e 0f 38 8d be 34 88 2a be
       -0.13196245 0.1747219 -0.27581832 -0.1665352
000270 fc 37 f5 3d ea 79 2b 3e 71 27 e8 bd 71 87 a2 bd
       0.11973569 0.16745725 -0.11335648 -0.0793599
000280 20 7f 06 bd 15 a5 93 be 51 06 55 bd bf 9d 8f be
       -0.03283608 -0.28836885 -0.052007977 -0.28050038
000290 86 e2 4a be 47 7d ed be 1b 8f ae 3c fd 17 92 3d
       -0.19812974 -0.46384642 0.021308472 0.07133482
0002a0 cc 39 89 3d 3e 4a f9 3d 05 48 93 be e5 0f 12 be
       0.06700477 0.12172364 -0.28765884 -0.14263876
0002b0 4d bc 19 bd d8 a9 43 3e 5c f0 4f be 67 6d 9c 3e
       -0.037533093 0.19107759 -0.20306534 0.30552217
0002c0 f7 d6 3f 3e a7 61 86 3c 93 f9 14 3e dd 9b 6a be
       0.18734346 0.016403986 0.1454833 -0.2291102
0002d0 37 61 a9 bc 44 40 71 3d 59 8f a0 bd 58 30 22 3e
       -0.020676238 0.05889918 -0.078398414 0.15838754
0002e0 25 70 fb 3d c3 0d d7 bd 4f 7e 56 bc 4a c3 a7 3c
       0.12277249 -0.10500672 -0.013091638 0.020478863
0002f0 8c 69 3f 3e a4 1a 11 3d ad 30 cb 3b d9 4a 0b 3d
       0.18692607 0.035425797 0.006200871 0.034006927
000300 dd cd c2 3d 04 5a 13 3e 27 b8 8a bd 04 2d e9 be
       0.095119216 0.14389807 -0.067734055 -0.45542157
000310 c6 39 a7 3d 27 3a 20 3e 71 6c 56 3b f6 51 41 bd
       0.08165316 0.15647183 0.0032718445 -0.047197305
000320 be db b5 bd a9 2e 16 be 5a bb 88 3d fe ef 2b bd
       -0.08879803 -0.14666237 0.066763595 -0.04197692
000330 d7 bb c3 3d 32 27 1d bb a9 1e b5 bd 99 59 2e 3e
       0.09557312 -0.002397966 -0.088437386 0.17026366
000340 e1 f2 09 3d 99 57 3d bd 63 d1 8f bc 65 a9 6b 3e
       0.033678893 -0.046226118 -0.017555898 0.23013838
000350 cd 68 a9 3b bf cb 0a 3e 76 6b 86 3d 35 7b 6b be
       0.005169964 0.13554285 0.06563465 -0.22996219
000360 2e f9 05 3e cd 14 63 3d d9 5b 0d 3e 61 e6 af bd
       0.13083336 0.05543976 0.13804568 -0.08588863
000370 ce 92 98 3e 68 9a be 3c 0b 4a bb bd 7e 64 af bd
       0.29799503 0.023266986 -0.09144982 -0.08564089
000380 42 c3 fc 3d 12 49 09 bf 62 80 e6 3d 53 7a 22 3e
       0.1234193 -0.5362712 0.11254956 0.15866975
000390 41 de c1 3d 8c d3 60 3e 73 f0 b1 3d 54 15 d9 3c
       0.0946622 0.21955699 0.0868844 0.026499428
0003a0 31 96 50 3d 54 f1 d4 be 62 6b 3a be a5 58 b2 be
       0.050924484 -0.4159037 -0.18205026 -0.34833255
0003b0 e2 91 a0 be fe 01 c7 3d 98 35 05 3e bc ab d5 bd
       -0.313613 0.09717177 0.13008726 -0.10433146
0003c0 35 f1 4f be a0 14 9d ba 5b fc b9 bd ab 05 14 be
       -0.20306857 -0.0011984296 -0.09081336 -0.14455287
0003d0 27 87 c1 3d ae 50 6e 3e 01 de 04 be 45 db 99 bd
       0.094496064 0.23272964 -0.12975313 -0.075125255
0003e0 71 aa bc bd 1c a1 06 be 85 43 aa 3d ec e5 c2 bd
       -0.092121966 -0.13147396 0.083136596 -0.0951651
0003f0 f9 61 30 be 31 fb e1 3d 0b 20 bc 3b 15 77 0d bd
       -0.17224874 0.11034239 0.0057411245 -0.034537394

fc2.bias f4 [128]
000000 32 82 dd 3c 29 34 3d bc 99 39 0e 3e df 8c 0c bd
       0.027039621 -0.0115480805 0.1388916 -0.034314033
000010 90 03 17 bd dd e0 f9 bb da a7 0c bd 16 a6 af 3d
       -0.03686863 -0.0076256827 -0.034339763 0.085766
000020 d9 39 db bb 21 cc 32 3d 70 7e 0b 3d e5 47 d0 bd
       -0.0066902456 0.043651704 0.034056127 -0.10169963
000030 b3 a7 c1 bd df 0a 9a bd b5 d8 c8 bd 38 93 ee 3d
       -0.09455814 -0.07521605 -0.098069586 0.116491735
000040 d8 70 91 3d 04 a2 68 bd 94 5b 35 bb 95 57 94 3c
       0.07101601 -0.056795135 -0.0027672993 0.018108169
000050 a0 84 16 3e 09 ac 0f 3d 88 0b 3b 3d 11 3f 23 bd
       0.1469903 0.035076175 0.045665294 -0.039855067
000060 03 1b 2c bd 17 7c 87 bd 30 5a 8f bd 40 eb ff 3a
       -0.042017948 -0.06615465 -0.06999624 0.0019525066
000070 bf ff 0c bd c5 ca 8d bd 85 84 e3 3c 3a 9a eb ba
       -0.034423586 -0.06923441 0.027773151 -0.001797504
000080 e9 44 1d bc 2f 57 78 3d 29 47 c5 bb 89 82 71 bc
       -0.009598949 0.06063002 -0.006020446 -0.014740595
000090 52 3e 61 3d d5 8f 7c 3d 96 89 d4 3d ca 5f 34 3c
       0.054991074 0.061660606 0.10377805 0.011009166
0000a0 9d 7f 3d 3d de ce b2 bd dc b1 08 3d 1a 2b cd 3d
       0.04626428 -0.08730863 0.033372745 0.100179866
0000b0 c3 42 01 be 84 06 9b 3c 70 e1 ec 3c 94 8d 6b bd
       -0.12623124 0.018924005 0.02891609 -0.057508066
0000c0 6e ba 7c bd b6 ae 3a bc d0 db c8 bd 86 ff 39 3d
       -0.06170123 -0.011394193 -0.09807551 0.0454097
0000d0 c9 c4 40 bd de 25 ca 3c 4d b3 1f bd 3f 22 74 bd
       -0.04706267 0.02467626 -0.038989354 -0.059602972
0000e0 27 fd 5e 3d c7 4d 8a 3c d6 e1 bf 38 11 70 b3 bc
       0.054440644 0.01688279 9.149655e-05 -0.021904023
0000f0 96 53 74 3d 2b ec c8 bc 11 e8 9b 3d 92 eb 6d 3c
       0.059650026 -0.024526676 0.076126225 0.014521496
000100 a0 95 4a bc eb be 5c bd bc 3d 89 3c 6f 13 35 3e
       -0.012364775 -0.05389301 0.01675307 0.17683195
000110 6d 0f c7 bd 30 d1 b5 3d 10 b1 d3 3d c7 bc 30 3d
       -0.09719739 0.0887779 0.10336506 0.043148782
000120 0e 73 83 bd c8 9c 99 3d c0 e5 f4 3c 8a 9f da bc
       -0.06418429 0.07500607 0.02989471 -0.026687402
000130 02 24 e6 3d 29 95 9b 3d d9 5d e1 3d 87 51 a5 3d
       0.11237337 0.075968094 0.11004228 0.08072191
000140 03 b1 d9 bb a8 e0 a2 3c 58 d6 b1 bd db ee 4b bd
       -0.006643416 0.019882515 -0.08683461 -0.049788337
000150 35 4a 2b 3e 33 12 d2 bc 61 7b 8e bd 5d 46 a0 3d
       0.16727526 -0.025643444 -0.069571264 0.07825921
000160 35 9a 5a bd c8 83 ba 3c bb 5b 9c bc 2e f5 a0 3c
       -0.05336972 0.022767916 -0.01908671 0.01964816
000170 4c d3 84 bc d2 ae c6 bd 7b 8e 4e bd 51 70 0f 3e
       -0.016214035 -0.09701313 -0.05042885 0.14007689
000180 83 1b 4a bd 74 16 3a 3d ef 3d 17 3d 8b 37 b5 3b
       -0.049342643 0.04543157 0.0369243 0.005530303
000190 9d db 65 3c ef fd 9a 3c 78 75 e1 3d b8 a4 80 bd
       0.014029411 0.018919913 0.110087335 -0.062814176
0001a0 75 60 98 39 e2 87 ff 3c 0e 0c b1 3c cd a8 08 bd
       0.00029063565 0.031192724 0.021612193 -0.033364106
0001b0 f6 87 56 3b 99 b9 81 3d 3a e9 17 3d 3c 9c 75 3d
       0.0032734848 0.06334228 0.037087657 0.05996345
0001c0 9d 2f c0 bc f8 4a 5a bc a5 a9 6c bd 0f b5 3d 3b
       -0.023460204 -0.013323538 -0.057778973 0.002894703
0001d0 3a e1 38 bd 7e 1f 40 3d 43 2f 8e bd 9a ce b7 bd
       -0.045136668 0.046905033 -0.06942608 -0.08974953
0001e0 d5 60 69 bd e6 52 39 3a 2d d4 99 bb f2 37 fd 3d
       -0.05697711 0.0007069543 -0.004694483 0.12364186
0001f0 bc bb 69 bd 56 5b d2 3d 15 2a 7b bd f9 b7 8b bd
       -0.057063803 0.10271327 -0.06131943 -0.068221994

fc3.weight f4 [4, 128]
000000 55 5e d6 bc 3b 9c 4a 3e 37 16 6a be 8b ea 50 3d
       -0.026168028 0.1978616 -0.22860037 0.051004928
000010 df ba f1 be cc 6f 1a be 40 f6 ba be cf c0 28 3e
       -0.47212884 -0.1508171 -0.36516 0.164798
000020 bc 45 76 3d 25 69 b0 3b e1 8f 8e be 13 f8 4d 3d
       0.060125098 0.005383628 -0.27844146 0.05028541
000030 27 03 d6 be c7 ba 53 3e 35 07 62 3e c6 a3 a1 bd
       -0.4179928 0.20676719 0.22073062 -0.078925654
000040 d9 65 bf 3d fa 44 30 3d fd 26 14 bd aa 41 0f 3e
       0.09345598 0.04303453 -0.036169995 0.13989893
000050 33 8a a5 3e b0 dd 4b be 9f d0 64 3e a8 a4 0c bc
       0.32332 -0.19908786 0.22345208 -0.008584179
000060 b7 83 ad bd c9 76 17 3e b8 dd 08 3f 5a b9 9b 3e
       -0.08472388 0.14791407 0.53463316 0.3041485
000070 1d da 20 be 26 b4 ee be 82 99 27 bd 29 8e 01 be
       -0.15708204 -0.46621817 -0.04091788 -0.12651886
000080 4f ae 77 3e 32 5e 1f 3e 03 45 72 3c e5 25 4e be
       0.24187587 0.15563276 0.0147869615 -0.20131643
000090 09 db 23 be a3 65 0d 3f 94 9e 15 be 05 5b b3 bd
       -0.16001524 0.5523321 -0.14611274 -0.08757595
0000a0 0a cd 0d 3b 67 08 56 be 43 eb 3b 3e 88 62 35 3e
       0.0021637105 -0.20901643 0.18351464 0.17713368
0000b0 1f e4 3d bd 45 ca 4d 3e f1 ab e5 bd 67 fe 1d 3e
       -0.04636013 0.20096691 -0.11214436 0.15429078
0000c0 3a 88 51 3f 8a dc a9 bd 06 0d bd 3e cc c1 cd bd
       0.8184849 -0.082940176 0.36924 -0.100467294
0000d0 a7 a8 50 3e c9 c7 a8 bd 9b ca 3d 3e 9c b6 54 be
       0.20376836 -0.08241231 0.18534319 -0.20772785
0000e0 51 7a f3 bd d3 aa 59 bd f3 55 94 3d 3f 50 0e 3f
       -0.118885644 -0.053141426 0.07242956 0.55591196
0000f0 0b 83 28 be e3 2f 26 3f e9 87 f4 bd 19 d8 5d 3e
       -0.16456239 0.6491682 -0.11939985 0.21664466
000100 38 c4 3e be a1 11 dc 3d 32 12 e6 3d a2 c6 76 be
       -0.18629539 0.1074555 0.11233939 -0.2409921
000110 2e ef 19 3e 04 ce c6 3d 50 d1 ba bd b4 6a 89 3e
       0.15032646 0.09707263 -0.091219544 0.2683922
000120 ee 8a e0 bd 1d 26 90 3e 29 51 82 3e c9 81 ab 3e
       -0.10963999 0.28154078 0.25452545 0.33497456
000130 12 80 0d 3e 76 77 32 3d e6 ab 0d 3e e6 77 22 3d
       0.13818386 0.043570958 0.13835105 0.039665125
000140 c8 2c 4b 3e 63 ad 98 3e 97 0d cd bd 81 7c 24 be
       0.19841301 0.29819784 -0.10012358 -0.1606312
000150 bb 55 c6 bd 6e 44 88 3e f8 58 56 bc 62 a3 21 3d
       -0.096843205 0.26614708 -0.013082735 0.039462455
000160 71 9f 80 3d d7 11 c5 bd 2e 4d cc 3d d6 81 03 be
       0.06280411 -0.09622543 0.09975658 -0.12842497
000170 4b 2a 13 3e 58 1b 8b 3e 75 83 cf 3c e2 ad ce bd
       0.14371602 0.271693 0.025331238 -0.10091759
000180 28 6a 7e 3d 29 7b 47 be 39 a6 96 bd 69 1c 98 3c
       0.062112957 -0.19480576 -0.07355923 0.018568235
000190 b1 1d c0 bd de 8a 90 bd 12 bd d2 bb 4b 69 3f 3e
       -0.09380663 -0.07057737 -0.0064312303 0.1869251
0001a0 68 b5 97 3e 9d cb df bd ad 87 9d 3c 2a 9b 7e bd
       0.2963059 -0.10927508 0.019229734 -0.062159695
0001b0 22 f6 e7 3d a1 2e a0 bd 93 52 00 be 02 a5 a6 3e
       0.11326243 -0.07821394 -0.125315 0.32547766
0001c0 6d f2 a1 bd 72 7f c4 bd 88 82 b9 3c b6 40 81 bc
       -0.07907567 -0.09594621 0.02264525 -0.015777927
0001d0 95 87 2a 3e e2 ca b4 3e f8 f1 80 3e 78 20 e3 3e
       0.16653283 0.35311037 0.25184608 0.4436071
0001e0 33 97 0e 3f 02 9e d8 3d 58 43 d2 bb 61 67 8f be
       0.5569946 0.105770126 -0.0064167194 -0.2800856
0001f0 65 65 92 3e 92 f4 90 3d 16 dc a4 bc 59 f4 05 bb
       0.28592983 0.07077898 -0.020124476 -0.0020439832
000200 5f 1d 4e be 85 64 80 bd 72 68 59 be c7 da 1e bd
       -0.20128392 -0.062691726 -0.21231249 -0.03878286
000210 49 04 54 bc a0 60 40 3d 72 03 fd 3e 2c f1 06 3e
       -0.012940475 0.04696715 0.4941669 0.13177937
000220 12 81 9f 3d 67 16 9a 3c fd 33 17 be 70 45 0d 3e
       0.0778829 0.01880951 -0.14765926 0.1379602
000230 52 27 94 bd 6c b8 a0 bf 29 10 16 bf 51 96 c8 be
       -0.07234062 -1.2556281 -0.5861841 -0.39177182
000240 f3 eb 78 bd bb 52 86 bc 98 6d 6d bd 6f f6 a4 be
       -0.060771894 -0.01639687 -0.057965845 -0.32219264
000250 09 91 21 3c ea 41 40 bf c3 72 d6 3c e4 74 00 3e
       0.009861239 -0.75100577 0.02617777 0.1254459
000260 21 51 3a bf 4e b8 21 3e 0e c8 29 3e 29 48 7d be
       -0.7278004 0.15792963 0.16580221 -0.24734558
000270 cf af a8 3e 42 85 1e bf f1 17 88 3c 69 7b 55 3d
       0.3294663 -0.61922085 0.016612979 0.052119646
000280 8c 5a bf 3c b1 88 0e 3f f9 5e 25 be fc b7 48 be
       0.023358606 0.55677325 -0.1614951 -0.19601434
000290 aa 4f 17 be cb 8f 8e 3e e3 73 51 3d 4c 23 fd 3d
       -0.14776483 0.2784408 0.05113591 0.12360248
0002a0 ba c5 30 be a8 b5 39 bd ca 3a 39 3e d6 b2 11 bf
       -0.17262927 -0.045339257 0.18088832 -0.56913507
0002b0 45 05 25 be d8 d8 ab 3d 23 13 0b 3d f3 5a c7 3e
       -0.16115291 0.08390969 0.033953797 0.38936576
0002c0 20 56 72 be eb c2 88 3d 3f 6c 9f 3e 2d 5d a9 3d
       -0.23665667 0.06677803 0.31137273 0.08269725
0002d0 85 88 50 3e 04 1e 29 3e 73 1e ee be dd 6c 1b bf
       0.20364578 0.16515356 -0.46507606 -0.6071299
0002e0 ec 93 e4 3d f6 e2 25 bc 65 b9 08 bd da 05 33 be
       0.11161026 -0.0101249125 -0.03337993 -0.17482701
0002f0 30 53 f9 3e 1c 37 57 3e c9 39 98 3d 1e 1d 7d 3c
       0.4869628 0.21017116 0.07432897 0.015448837
000300 77 9f db 3d 2f a2 62 bd bb 66 df 3d c9 46 a1 3c
       0.10723775 -0.05533045 0.10908266 0.019687073
000310 c5 c7 8f 3e f3 fe ed bd 15 cb cc 3c 8f 00 95 3e
       0.280821 -0.11620893 0.02499918 0.2910199
000320 d0 bd cd be 08 f3 a1 be f4 4e 71 bd f0 5b 14 bf
       -0.40183878 -0.3163073 -0.058913186 -0.57952785
000330 d4 a4 11 3e 9b 43 a6 be 22 3e 6e be 66 49 a1 be
       0.14223033 -0.32473454 -0.2326589 -0.3150131
000340 d5 3e d1 bc cf 9f 02 3e 25 0b 15 bd 0c bc 4d 3e
       -0.025542656 0.12756275 -0.03638758 0.20091265
000350 5b e7 ae be 18 88 05 3f 36 88 c6 bd 0e 53 81 be
       -0.34160885 0.5216079 -0.09693949 -0.25258678
000360 7c c7 9a 3d 3d 26 45 be 4e 34 b6 be 32 bc 6c bf
       0.0755758 -0.19252868 -0.3558678 -0.92474663
000370 c5 00 39 bf 4a f4 82 3e 7b 3a e5 be 40 0f 89 be
       -0.722668 0.25577003 -0.4477118 -0.26769447
000380 79 f8 0f 3b c1 20 fa 3d 44 29 97 3e 9d f2 4b 3d
       0.002196817 0.122132786 0.2952367 0.04979192
000390 74 fd b9 3b 65 f7 01 3d 3f fe 0e bd 5d 44 0e bc
       0.005675966 0.031730074 -0.034910437 -0.008683291
0003a0 c9 1b 8a be ab db d2 3c ab e3 e9 3c f8 6c 84 bb
       -0.26974323 0.025739511 0.028550943 -0.0040413104
0003b0 1d 7b f1 3e 68 a9 e7 3d 73 44 27 3c 0e 92 bc 3e
       0.4716424 0.113116086 0.010209191 0.3683018
0003c0 86 7c 95 3d 26 2f 5c 3b aa e8 10 3f 09 f5 6e bb
       0.072991416 0.0033597439 0.5660502 -0.003646197
0003d0 fd f4 25 be 43 80 36 3e 6d 53 0e 3e 5a 62 56 3e
       -0.16206737 0.17822365 0.13899012 0.20935956
0003e0 b0 af cf 3e 52 fb fb 3d 65 7c 79 3c d5 8f 7a 3c
       0.40563726 0.12303795 0.015227412 0.015293081
0003f0 09 de ab 3c 8d 19 a3 be 9f 8d 10 3e 9a 0e b6 be
       0.020979898 -0.3185543 0.14116524 -0.35558015

fc3.bias f4 [4]
000000 c2 be a5 bc 2c 07 a6 bc e4 83 28 3c 48 43 6a 3d
       -0.020232562 -0.020267092 0.010285351 0.05719307
