checkpoint_critic.pth (torch_old, 435420 bytes, 7 tensors)

fcs1.weight f4 [256, 33]
000000 fb 42 47 bd 24 13 99 bc b1 78 e6 bc 9d 7c 34 3d
       -0.048647862 -0.018685885 -0.028133722 0.044064153
000010 cb d2 92 bd e5 08 37 bd 6c e4 70 3d b8 1c d0 3c
       -0.07169112 -0.044686217 0.05881159 0.02540432
000020 de d7 f1 bc d0 ef 0b 3d 00 8a 7f 3c e7 a7 86 3d
       -0.029521879 0.03416425 0.015596867 0.065749936
000030 1e 1b d7 3d 45 83 06 bd 14 ab a0 3d d2 f8 b8 3d
       0.10503219 -0.032840032 0.078451306 0.09031834
000040 8e 7a e8 bc e4 10 2f 3c 23 5c 2a 3b 91 43 6e 3d
       -0.028378751 0.010685179 0.002599486 0.058169905
000050 d6 97 f3 bc f1 ec 7e bd 0e a2 a0 3c 8a ab 81 3c
       -0.029735487 -0.062237684 0.019608524 0.015828867
000060 bf 90 b1 3d 0e 43 41 bd 06 ac 91 bd a4 08 c4 ba
       0.08670186 -0.04718309 -0.07112889 -0.0014956188
000070 b7 0a 98 bc 40 02 57 bc 38 73 92 bc 86 b1 58 bd
       -0.018559797 -0.013123095 -0.017877206 -0.052903675
000080 15 01 dc bb 21 6d 9d 3d ce b7 c6 3c 6e a6 13 bd
       -0.006713996 0.0768683 0.024257567 -0.03604739
000090 90 c3 4c 3c 1c dd 2f 3d ba 48 5b 3d 3d 7f de 3c
       0.012497798 0.042935476 0.053536154 0.027160281
0000a0 23 84 88 3a c0 77 56 bc fe 56 d2 3d 5c ca 1e bd
       0.0010415356 -0.013090074 0.10270499 -0.038767204
0000b0 06 ce 7d bc 7e 28 a8 3b 18 18 21 bc 1b 08 a0 bc
       -0.015491014 0.00513178 -0.009832405 -0.019535115
0000c0 aa 88 14 3d e4 78 c2 bc 57 e5 81 bc 56 e7 7b bd
       0.036263146 -0.023739286 -0.015856428 -0.061499916
0000d0 7a 50 a2 bd fb e6 8f bc c2 75 a2 3d 43 b5 f7 3a
       -0.07925506 -0.017566195 0.07932617 0.0018898625
0000e0 93 a6 c8 3c 1e b6 b3 bc ca 82 3f 3d 33 8e 08 bd
       0.024493491 -0.021937426 0.04675559 -0.033338737
0000f0 71 ab 3a bd b6 6f 27 bd 80 12 cc 3b 77 65 23 3d
       -0.045573656 -0.04087802 0.0062277913 0.039891686
000100 c8 40 2b bc 4e 3e c4 3e 96 7d 07 bd dd c9 e1 3c
       -0.010452457 0.38328785 -0.033078752 0.027562076
000110 77 95 6e 3d 86 18 94 3d e9 5b fd bc 2a 37 4a 3c
       0.05824801 0.0723124 -0.030927615 0.012342254
000120 28 66 85 3d 70 12 1a bd ab 66 b8 3d 9e 31 2c bc
       0.065136254 -0.03761524 0.09003957 -0.010509877
000130 ef 4c b6 3c e4 db 5a 3d d4 c3 83 3c c3 af 09 bd
       0.022253482 0.05343236 0.016084589 -0.033614885
000140 d0 da 16 3d 46 5e 18 bd 5c 4e 6d bd 04 92 39 bd
       0.03682977 -0.03719928 -0.057936057 -0.045305267
000150 f9 40 3b 3d 09 bf 53 3d d8 60 05 3d af ac 4e 3d
       0.04571626 0.051695857 0.03256306 0.050457653
000160 63 89 1a bd 04 39 a7 3c b1 98 3d 3d 02 7d 36 bc
       -0.03772868 0.02041293 0.046288196 -0.011138203
000170 fc ca ca 3d 8c a9 f9 bc 50 e7 37 bc b8 af 72 3c
       0.099019974 -0.030476354 -0.011224583 0.014812402
000180 c5 db 30 bd 80 92 29 bb 78 f8 42 bd 97 7a 28 3a
       -0.04317834 -0.0025874674 -0.04760024 0.0006426959
000190 21 d4 79 3d 37 69 60 3d b7 6e 6e bd 27 9d a5 3d
       0.060993318 0.05478784 -0.058211055 0.08086615
0001a0 5f cf 8e 3c a4 6c 4b 3c 05 cc 0f bc 91 ab ed 37
       0.017432867 0.012416039 -0.008776669 2.8332493e-05
0001b0 d2 85 04 3e 3b 09 b3 3c 01 00 29 3c 1d 54 97 bc
       0.12941673 0.021854987 0.010314942 -0.018472726
0001c0 8c 23 a1 bb 73 4d 31 3d 20 a3 69 bc 2f b1 b1 bd
       -0.0049175676 0.043286752 -0.014260083 -0.08676373
0001d0 63 28 81 bd f8 e7 3c bd 66 61 e6 3d f7 73 e8 3a
       -0.06306531 -0.04611966 0.11249046 0.0017734756
0001e0 09 2c 61 bd ee ed 94 bc 1c 8d 3e bc cc 72 00 bb
       -0.054973636 -0.01817986 -0.011630323 -0.0019599674
0001f0 f4 e4 58 bb a5 90 62 3d 9b 09 0c 3d 51 19 91 bd
       -0.003309545 0.055313725 0.034188848 -0.07084907
000200 ac 7a de bc 1f 33 57 bd c0 5b 6b 3d 1f 91 dc 3e
       -0.027158104 -0.052538987 0.057460546 0.4307947
000210 94 10 58 bc 46 e8 83 3c 46 3c ef 3a e5 1b ac 3c
       -0.013187546 0.016101968 0.0018252216 0.021009395
000220 c8 d5 3b 3d b4 14 58 3d 0a f6 32 3c b0 23 0e bd
       0.045858175 0.05275412 0.010922918 -0.034702003
000230 25 e3 8c 3d 9b c3 0a 3d a3 3e 42 bc 09 05 6f bc
       0.06879262 0.03387795 -0.011855754 -0.014588603
000240 a3 47 b8 bc 92 b1 a3 3c 0f 30 01 bd 61 dc 33 3c
       -0.022495097 0.019982133 -0.031539973 0.010977835
000250 28 a2 ee bc 3b 2d 7f bd 6f 10 18 bd a2 4e 0d 3d
       -0.029130057 -0.062298995 -0.037125047 0.03449882
000260 12 d4 8b 3b 3e 8e a1 bc a6 b3 5b bd 75 b0 b4 3a
       0.004267224 -0.019721147 -0.053638123 0.0013785498
000270 76 a9 9e ba 73 a0 bc bb 02 af b6 bd 2a 25 54 3d
       -0.0012104947 -0.0057564317 -0.08920099 0.051793255
000280 84 64 7f bd f8 b6 54 3d 04 ac 88 bd 7c d1 83 bc
       -0.06235172 0.051932305 -0.066734344 -0.0160911
000290 4e 02 21 bf 4d e0 b7 3d 9b 22 a7 bd 70 bc b5 ba
       -0.6289414 0.08978329 -0.08160897 -0.0013865363
0002a0 0e 15 32 bd 7e ea 56 3c 97 0d af 3c 33 5b 6b bc
       -0.04347711 0.013117431 0.021368785 -0.014365005
0002b0 a2 26 d8 bc 60 c2 a5 bd 11 0b 7a 3d fd ba 08 3c
       -0.026385609 -0.08093715 0.06104571 0.008345363
0002c0 d7 5d 1a bc 49 0e 76 bb 25 32 f8 bd cb f6 22 3e
       -0.009421787 -0.0037545136 -0.12118939 0.15914457
0002d0 5a 72 8f bc 3d 6c eb 3c 56 ee 20 3b 38 8c 73 3b
       -0.017510582 0.028738135 0.0024556122 0.0037162434
0002e0 5e 0c 22 bc 70 36 6f bc a3 69 cd bc 73 e0 13 3d
       -0.009890644 -0.014600381 -0.025074786 0.036102723
0002f0 e0 d5 af bb 1d af 7f 3c 16 24 51 bb ab b1 5b 3d
       -0.005366072 0.015605715 -0.0031912378 0.053636234
000300 be 54 5f bd 42 59 09 3c 08 74 72 3d 4a dc 58 3d
       -0.054524176 0.008383097 0.059192687 0.05294446
000310 ca 9a 16 bd af 53 f2 bc 50 5a 76 3d 81 9f 79 3c
       -0.036768712 -0.02958092 0.060144722 0.015235783
000320 2d 64 d2 bd fa f1 16 3d 1d 87 4d bd a5 91 04 3d
       -0.10273013 0.03685186 -0.050177682 0.03236546
000330 57 9a 55 3d 06 22 1b 3d 1e d6 30 bd a1 95 90 3d
       0.052149143 0.037874244 -0.043172948 0.070597894
000340 3e fc 54 3d 29 e9 19 3c 46 ad 75 bc 27 ff 3b 3c
       0.05199837 0.009393969 -0.014994925 0.011474407
000350 1f 61 03 bd 38 61 8e 3b 85 b4 50 3d 28 33 ef 3a
       -0.032075044 0.0043450855 0.050953407 0.0018249499
000360 9c fe a7 bd ae 4f 7b bc f1 43 83 bc 79 6a 12 bc
       -0.0820286 -0.015338821 -0.016023608 -0.008936518
000370 e2 14 ff 3c 7f 75 67 3d 4c 2d 51 3b 51 79 26 3d
       0.031137887 0.056508537 0.0031917868 0.04064304
000380 c8 7c 01 3d 5e 86 14 3d b4 96 db 3b 10 bd 13 bd
       0.03161314 0.036260955 0.006701315 -0.036068976
000390 f3 5f a2 bd 7a 46 12 bd ce 42 d0 3e 7a 6c 23 bd
       -0.07928457 -0.035711743 0.40675968 -0.039898373
0003a0 7a 51 7b 3c bc f2 00 be a7 4a 46 3c 2d 52 58 bc
       0.01533925 -0.12592596 0.012102759 -0.013203186
0003b0 96 48 d9 3c 84 3f 62 bd 63 56 6d 3b 32 bd 10 bd
       0.02652387 -0.055236354 0.003621482 -0.03533668
0003c0 95 91 c1 3b 7e 07 45 bd ab 93 df 3c e1 98 86 bd
       0.0059072473 -0.04810285 0.027292093 -0.06572128
0003d0 6f f0 eb 3d 3e 0a 38 3c d6 45 80 3c 99 72 23 b9
       0.115204684 0.011232911 0.0156583 -0.00015587582
0003e0 8e 97 aa bc 29 f1 ef bc d3 4a a1 bd f2 33 80 bc
       -0.02082422 -0.029289799 -0.078756 -0.01564977
0003f0 ab 0d c3 3c 52 37 c2 3b 51 05 0b 3d 02 7f b7 bc
       0.023810228 0.005927005 0.033940617 -0.02239943

fcs1.bias f4 [256]
000000 14 ed f9 3c f9 a4 2c 3d 00 12 d7 bd ad 03 ec bd
       0.030508555 0.042149518 -0.1050148 -0.115241386
000010 92 42 70 3d cc cf 8c 3d 77 28 a9 bd 75 27 84 bd
       0.058657236 0.068755716 -0.08259671 -0.06452838
000020 63 38 b2 3b 61 e5 0c 3e 36 fc 7e 3c 45 dc 45 3d
       0.0054388507 0.13759376 0.015563061 0.04830577
000030 ad 45 d4 3c bc 3f 2b be 00 b6 22 be 16 b7 c3 bd
       0.02591213 -0.16723531 -0.1588974 -0.09556405
000040 2a b9 ef bd e0 d5 2b 3e 16 b5 00 be 8d d3 07 be
       -0.11705239 0.16780806 -0.12569079 -0.13264294
000050 38 cb e8 3d 6e 3a b9 bd ab d5 f1 3d 8a fd 3b bd
       0.11366886 -0.09044348 0.11808332 -0.04589609
000060 bf a9 fe 3d b4 b6 01 be 6b 6c 90 bd c8 ec 89 bd
       0.1243472 -0.12667352 -0.07051929 -0.067346156
000070 1b 8e 25 3e 57 e0 a3 3d 54 c3 57 be 82 f9 1b bd
       0.1616749 0.08001774 -0.21070606 -0.038079746
000080 45 0b 55 3c 16 9f 73 bc 7c ef 75 bd 84 78 4b be
       0.013003175 -0.014869472 -0.060042843 -0.19870192
000090 b8 17 04 be 11 86 25 be 9a c7 86 bd 1c 22 b1 3d
       -0.12899673 -0.16164424 -0.0658104 0.08649084
0000a0 f5 7b fe bb 56 79 e7 3d 97 e4 00 3e 53 81 37 be
       -0.0077662417 0.1130244 0.125872 -0.17920427
0000b0 07 e1 fa bd dc ae ce 3d d1 d7 1d 3d d8 22 bc bb
       -0.12249952 0.100919455 0.038535897 -0.0057414584
0000c0 84 af bc 3d 5f 10 6a bd 7c 50 0d 3d ac e1 bc bd
       0.092131644 -0.05714452 0.034500584 -0.09222731
0000d0 02 45 6b 3c 76 e7 ec 3d 45 80 d2 bd 05 6c 75 bd
       0.014359714 0.11567585 -0.10278372 -0.05991747
0000e0 3b b8 11 be 50 33 aa 3d 33 b7 63 bd d4 1d 92 3d
       -0.14230435 0.08310568 -0.055594634 0.071345955
0000f0 9c 8d ef bd 38 de 98 3d 7b cc 1b bd 32 e1 96 3d
       -0.11696932 0.0746426 -0.038036805 0.07367171
000100 1f 35 e7 3d 78 f9 e6 3c 5e 96 49 3d b9 c3 1b 3e
       0.11289429 0.028195128 0.049215667 0.15211381
000110 1a 5f 04 3e f6 c8 0e be f9 ca 98 bc 6b 75 fe bd
       0.12926903 -0.13943848 -0.018651472 -0.124247395
000120 66 c2 1f 3e 0c 51 99 bd d2 c7 2c be 3d 4a 48 3d
       0.15601501 -0.074861616 -0.168731 0.048898924
000130 58 4f fc bd cc a4 75 bc ae 85 e1 bc 50 6b f0 3d
       -0.12319821 -0.014992904 -0.027529564 0.11739218
000140 af 84 ae bc 67 18 aa bd 75 14 10 be 9a 98 c2 bd
       -0.021303503 -0.08305436 -0.14070304 -0.09501763
000150 f3 81 9b 3d 0a ab 69 3d b7 b3 e1 bd 35 4d cf 3d
       0.07593145 0.05704788 -0.11020606 0.10122148
000160 72 3a f5 3d 89 09 50 be da a4 e8 3d b2 dc 89 3d
       0.11974038 -0.20316137 0.11359568 0.067315474
000170 90 52 cd 3c c4 6b 10 be 29 1d 88 3d ba 84 c4 bc
       0.025063783 -0.1410361 0.06646187 -0.02398907
000180 9a 9f 19 3e 31 0e 9a 3c 58 22 9f 3d d3 fa 4b bc
       0.1500229 0.018805595 0.077702224 -0.012449938
000190 1e b1 2b be aa 68 c1 3d d8 a4 07 bd ca e4 cd bd
       -0.16766784 0.09443791 -0.03311619 -0.10053404
0001a0 3f 0a 75 bd f7 15 b5 3d 36 4b 15 be 0a 1c 29 3e
       -0.059824225 0.0884208 -0.14579472 0.16514602
0001b0 5f 0c f5 bd dc df 02 3e 34 cd 41 be fe 70 f8 3c
       -0.1196525 0.12780708 -0.18925935 0.030327316
0001c0 2f 86 4d 3d ff 07 83 3d db 69 83 3c 16 b2 30 be
       0.050176796 0.063980095 0.016041687 -0.17255434
0001d0 33 19 34 bd 4c 6e 22 3d 5a bc 2a be eb c2 90 bd
       -0.043969344 0.03965597 -0.16673413 -0.07068428
0001e0 5b 47 4c 3d d6 14 de bd d6 b4 09 3e ac 30 c9 3b
       0.049872737 -0.10843818 0.1344789 0.0061398353
0001f0 94 a8 a9 3d ff df ab bd 99 53 e9 bc 3d 0b cd 3d
       0.08284107 -0.08392333 -0.028482245 0.10011909
000200 c7 a8 29 3e 05 7a f7 bd 45 bc 43 3e 68 8c f4 3d
       0.1656829 -0.1208382 0.19114788 0.11940843
000210 ca 07 8c bd f7 13 31 bc ae a6 1b bd 7d 9f a1 3c
       -0.06837423 -0.010807983 -0.038000755 0.01972937
000220 41 11 14 3e 8f 86 88 39 a3 c6 32 3d db 03 29 be
       0.14459707 0.00026040195 0.043646466 -0.16505377
000230 89 7f 61 be ef dd 84 bd 7e c8 4b 3d e3 26 18 3e
       -0.22021307 -0.06487643 0.04975175 0.14858584
000240 c3 d7 01 3e c7 2e ea bd 09 c1 22 be 57 7e 89 bd
       0.12679963 -0.11434703 -0.1589395 -0.067135505
000250 a9 13 23 3d cc b1 f5 3d 24 0f 96 3d fb e2 79 bd
       0.03981367 0.11996803 0.073271066 -0.06100748
000260 d6 29 1d bd 02 4a 8c bd f7 f0 5a bb 35 f6 c7 3c
       -0.038369976 -0.06850053 -0.0033407786 0.024409393
000270 a6 0c f5 bd a4 20 1a be f9 f9 0b 3d fc 56 16 3e
       -0.11965303 -0.15051514 0.03417394 0.1468162
000280 65 00 08 be 13 33 d2 bd 07 c9 1c 3d f0 c4 9f bd
       -0.132814 -0.10263648 0.038277652 -0.07801235
000290 b7 32 96 3d f7 dd e5 bd 5d 8c 61 3c d6 a5 49 bd
       0.07333892 -0.11223977 0.013766375 -0.04923042
0002a0 69 f6 aa bd 12 79 95 bc 32 4f 3c 3e 51 81 59 3d
       -0.0834778 -0.018246207 0.18389586 0.05310184
0002b0 2c 30 5f bd e7 37 0d be bb 46 18 3e c4 26 34 bd
       -0.0544893 -0.13790856 0.14870732 -0.043982282
0002c0 e1 fc fb bd 03 fc 49 3d 55 f4 15 3d 2c a9 4f be
       -0.12304092 0.049312603 0.036609966 -0.20279378
0002d0 4d f9 ee bc d6 54 24 bc 6f 0d ab 3d 30 db 87 bd
       -0.02917161 -0.010029992 0.08352172 -0.066336036
0002e0 a2 5d bf bd ad f5 f8 3d 6f 87 94 3d de 13 0d be
       -0.09344031 0.12156234 0.072523944 -0.1377711
0002f0 ec 46 9b bd 97 97 43 be e7 a6 ba 3d ee e4 a7 bc
       -0.07581887 -0.19100796 0.09113865 -0.020494904
000300 00 b6 33 3b 63 1b 8a bd 7a 6a 00 be e2 62 62 3d
       0.0027421713 -0.06743505 -0.12540618 0.055270083
000310 bb 59 bc 3c ef a4 98 3d 8f 9b d6 bd 5f 2d 40 3c
       0.022992006 0.074533336 -0.10478889 0.011729567
000320 6c cf e7 3d 9b 70 c4 3d ff 01 b6 3d 5c 14 09 bb
       0.113188595 0.0959179 0.088870995 -0.0020916676
000330 bb 2c 48 bd d7 e5 ec 3c 38 8a 36 bd 15 8d 08 be
       -0.048870783 0.02891819 -0.04456541 -0.13335069
000340 da 02 0b 3e a2 fd 45 be 5d 9d 60 bd f4 a5 13 3e
       0.13575307 -0.19335034 -0.054837573 0.14418775
000350 6b d4 0c bd 96 5f 7c bd 0f 6b d8 bd 58 b0 2d 3d
       -0.034382265 -0.061614595 -0.10567295 0.042404503
000360 22 9f dc bd ba f8 c9 bd a4 99 e0 bd 3b ad 1b be
       -0.1077254 -0.09861894 -0.109668046 -0.15202801
000370 4b 37 0a 3e 8e 77 ba bb 2c 86 49 be 8a a8 a8 bd
       0.13497655 -0.0056905216 -0.19680089 -0.08235271
000380 4b ce be 3b 72 f5 b0 3d 85 b7 c4 3d b9 14 91 bd
       0.005822932 0.08640565 0.09605316 -0.07084031
000390 40 ac b4 3d 48 ab 78 bb 40 40 d8 bd 0f 47 02 3d
       0.088219166 -0.0037943888 -0.1055913 0.031806048
0003a0 14 97 b8 bc ed df 16 bd 4b 65 9c 3d 77 e9 06 be
       -0.022532977 -0.036834646 0.076365076 -0.13174997
0003b0 09 aa fe bd bc 4a b3 bd 4d 5a b7 3d 2b 07 0b be
       -0.124347754 -0.08754489 0.089527704 -0.13576953
0003c0 7d dc bd 3d 75 f6 07 3e d5 0e ae 3c 0f 93 3e 3d
       0.092705704 0.1327761 0.021247307 0.046526965
0003d0 e9 ef bf bd 85 25 c0 3d d6 75 95 bd 3c db af bd
       -0.09371931 0.09382156 -0.07297866 -0.085867375
0003e0 45 a0 b7 bd 11 2a 52 3d ab cf 8a 3c 32 bb d2 3d
       -0.08966116 0.05130965 0.016944727 0.10289611
0003f0 3b a8 fc bd 35 fd 9b bd 90 fe f6 3b 00 44 4a be
       -0.12336775 -0.07616655 0.0075376704 -0.19752502

fc2.weight f4 [256, 260]
000000 e8 f9 b7 bb 0c cc 9e bb b3 49 4f bd 58 11 04 bd
       -0.005614508 -0.0048461016 -0.050607394 -0.032243103
000010 9c 41 28 3e 2b 98 21 bd 68 ee 69 bd 84 73 74 3c
       0.16431278 -0.03945176 -0.057112128 0.014920119
000020 66 e7 f0 bd bd e3 cf bb e4 66 82 3d 14 70 c3 bc
       -0.11762886 -0.006344287 0.06367281 -0.023857154
000030 19 72 a9 3d 7c c8 5d 3d 34 32 76 3a 5f e6 31 3d
       0.082737155 0.054146275 0.0009391636 0.04343259
000040 e9 b0 b8 bc 92 f7 da bd ca b8 20 bd 67 11 6b bd
       -0.022545295 -0.106917515 -0.03923873 -0.057389643
000050 39 c1 2e 3d e4 9d 36 3d 57 01 81 bc 16 7a 25 bd
       0.04266474 0.04458417 -0.01574771 -0.040399633
000060 7d 3f 69 bd a8 d4 eb 3c 49 6c 20 bd 36 45 ad 3d
       -0.056945313 0.028787926 -0.03916577 0.084604666
000070 eb db 12 bb 9e a9 1b bc da aa 75 bc 98 08 f1 3d
       -0.0022408913 -0.009500889 -0.0149943475 0.11769217
000080 fd bc 57 bc 91 ed 94 bc b5 2d 23 bc 0c 11 e4 3b
       -0.013167617 -0.018179687 -0.009959628 0.00696004
000090 c6 b7 a9 ba 12 97 88 3d e0 3a 6d bd 78 2f 13 bd
       -0.0012948446 0.066694394 -0.057917476 -0.03593394
0000a0 f2 5f 4c 3c aa 12 95 bc 58 0e 26 bc 51 7c 52 bd
       0.012474047 -0.018197376 -0.010135256 -0.05138809
0000b0 0f 11 4c bd ea 84 62 3d ca f4 23 bc 34 0b 67 3d
       -0.049820956 0.055302538 -0.010007093 0.05640717
0000c0 63 01 a0 3d a5 82 58 3b 7e 2a d0 3c 20 cf 15 3b
       0.078127645 0.0033036855 0.025410887 0.0022859052
0000d0 8a 47 ae bd 1c e5 87 3d 22 64 f3 3c 1a d3 30 b9
       -0.08509739 0.06635496 0.029710833 -0.0001686331
0000e0 39 d7 08 bd 9e 02 b7 bc b9 ce 89 3d d3 d3 2f bd
       -0.033408377 -0.022340115 0.06728882 -0.04292662
0000f0 e0 8d 4e 3b 39 9e c6 3d a7 13 1a bb 79 e4 16 3d
       0.003151767 0.09698147 -0.002351025 0.036838982
000100 91 3a 4e 3d 3d 51 39 3b 4a 85 8b 3c ea 29 25 bc
       0.050348822 0.0028277182 0.01703133 -0.010080794
000110 4a a2 b7 3b f4 06 ae bd 4c 46 83 bd 3f 96 b5 3c
       0.005604063 -0.0849742 -0.064098924 0.02216637
000120 77 5f 13 3d a0 83 01 3c 16 6f 37 bd 0f 50 6c bc
       0.035979714 0.007904917 -0.044783674 -0.014423384
000130 c5 22 96 bd 35 cc c7 3d f7 76 c8 3b 6c cb be bd
       -0.073308505 0.09755746 0.0061176973 -0.093161434
000140 66 ed 5f 3d b7 9a 39 bd c9 5c 2d 3d 97 b5 f5 3c
       0.05466976 -0.045313563 0.042324815 0.029993815
000150 60 74 f3 3c 0c b6 41 bd d2 74 33 3c 87 25 76 3d
       0.029718578 -0.047292754 0.010953145 0.060094383
000160 8a 5b 6d 3c 23 e7 0e 3c aa c9 94 bd 66 10 f7 bb
       0.014487157 0.0087220995 -0.07265027 -0.0075397966
000170 ad 49 47 3d 2f fc 61 3d 9b a7 bf bc 75 79 07 3d
       0.048654247 0.05517214 -0.02339535 0.033074815
000180 03 e7 df bc c3 f4 32 3c 0b f3 55 bd 3b 32 f8 bb
       -0.027331835 0.010922614 -0.052233737 -0.0075743473
000190 98 a5 80 3d b2 23 b3 ba b0 90 98 bc 87 18 3a bd
       0.062815845 -0.0013667254 -0.01862368 -0.045433547
0001a0 b9 8a 75 3c c1 c2 50 3d 32 7f 60 bc a8 9c 76 bd
       0.014986687 0.05096698 -0.013702201 -0.060207993
0001b0 b6 01 99 bd fa 60 81 bc 85 85 c6 bc 67 41 1d bc
       -0.074710295 -0.015793312 -0.024233589 -0.009598113
0001c0 d9 40 b5 3d a9 70 23 3d 2a 9b ed bc 10 f7 2b 3d
       0.08850259 0.039902363 -0.029004652 0.041983664
0001d0 f8 eb 89 3d 3f 7f 54 bd 81 75 94 bd 61 32 b6 bd
       0.067344606 -0.051879164 -0.072489746 -0.08896328
0001e0 07 6d b7 bc fb a6 93 bd f8 2f aa bb d3 98 a2 3c
       -0.022390855 -0.07209583 -0.0051937066 0.019848263
0001f0 ed e2 93 3d a1 3d a6 bc 9f cb 95 bd 3e 5d 07 bd
       0.07221017 -0.020293059 -0.07314228 -0.033047907
000200 e2 8d ab bd 1d 94 19 bd f9 29 40 bd 7f 67 c3 bc
       -0.083766714 -0.037494767 -0.04691503 -0.023853062
000210 62 ba 84 3d d8 cf 90 bd db b4 88 bc 4c 37 4e bd
       0.06480862 -0.07070893 -0.016687801 -0.050345704
000220 b8 3e 1c 3c ce 71 9a bd 36 49 86 3d b5 0b a5 3d
       0.009536438 -0.07541238 0.06556933 0.080588736
000230 07 a9 58 bd 81 c6 71 bc 7b e1 ab 3c 5c 46 93 3d
       -0.052895572 -0.0147568 0.02098154 0.07191154
000240 4e 05 8f bd 19 18 2a bc 26 b3 b6 bc a9 1f 03 bd
       -0.06983434 -0.010381722 -0.022302222 -0.032012615
000250 2f a2 6e ba 7e dd 90 bc 82 f6 e7 3c 1d ba c1 3c
       -0.0009103147 -0.01768374 0.028315786 0.023648316
000260 c7 4a 91 bd 6d c4 43 bc b8 89 6b bb f5 49 db bb
       -0.07094341 -0.011948687 -0.003594024 -0.006692166
000270 b8 3f 44 3d 8e b2 78 bd b1 9d 5c 3d 74 a7 d8 3b
       0.04791233 -0.060717158 0.053861324 0.006611759
000280 2b 4c 3c 3d 52 d5 3c 3d d1 5f 19 3d 59 27 54 3c
       0.045971077 0.046101876 0.037444893 0.012948834
000290 5b 57 09 bd fc b7 0c 3d 94 15 34 bc 12 6c 5b 3d
       -0.033530574 0.03435515 -0.010991473 0.05356986
0002a0 82 f9 24 3d 6a d2 cc 3b c7 5f 39 3d 95 17 a8 bc
       0.04027701 0.0062506692 0.045257356 -0.020519057
0002b0 97 c8 70 3c 7b 40 a9 bd 5b b1 33 bd 8c d9 21 be
       0.014696262 -0.08264252 -0.04387031 -0.15805644
0002c0 c8 96 86 bc 83 7c 26 3d ef 2e f0 3d 3b 18 cf 3c
       -0.01642932 0.040646087 0.11727702 0.025280109
0002d0 2f c7 18 bd bf 40 1e bd e2 40 46 bd 45 0e 01 bd
       -0.03729933 -0.038635965 -0.04840172 -0.03150775
0002e0 3e d5 c8 3c 7e 64 48 bc 0b 75 d0 bc ef 9b b3 3d
       0.024515744 -0.01223099 -0.025446435 0.08769976
0002f0 0b 9b 5a 3b e3 7e 3b bd c7 fa 62 3d 2a a9 15 3d
       0.0033356573 -0.045775305 0.05541494 0.03653828
000300 71 1b 8c bc 50 fe f2 bd 15 82 a0 bd 39 fe b9 3d
       -0.017102929 -0.118649125 -0.07837311 0.09081692
000310 57 a6 0d bd 93 10 7f 3b 3b aa 00 3e 96 d8 37 bd
       -0.034582462 0.003891979 0.12564938 -0.044884287
000320 60 f9 a5 3a c0 53 1a bd c1 ea 39 be bf 44 54 3b
       0.001266282 -0.037677526 -0.18155958 0.0032389609
000330 45 31 53 bc 70 c0 7c bd ae c7 8a 3d bb f8 f6 bb
       -0.012890165 -0.06170696 0.06776367 -0.007536975
000340 d3 94 4c 3d 92 33 95 bc 1c 10 cf 3c 55 9e 8f 3c
       0.049946617 -0.018213067 0.025276236 0.017531553
000350 5f 0c cf 3d 59 fa b1 3d 03 b9 09 3d f2 0f 1f bd
       0.101097815 0.08690328 0.033623707 -0.038833566
000360 e1 c4 b2 3c d5 56 cb bc ef c7 22 3d 80 d5 3e 3d
       0.021822395 -0.024821678 0.039741453 0.04659033
000370 6e a1 a4 3c 40 78 72 3b 3a b0 01 bd df 97 25 3d
       0.020096507 0.0036997944 -0.031662203 0.04042804
000380 9e 7a 86 bc 54 09 2f bb 2a 55 b0 bd f6 c4 70 3c
       -0.01641589 -0.002670844 -0.08609994 0.014695397
000390 12 72 4d bd 8c 4a e9 bc e8 2a a4 bc 42 48 0b bc
       -0.050157614 -0.02847793 -0.02003999 -0.008501114
0003a0 04 b3 92 3c 45 f4 8b 3a 88 98 2e 3d 3b 04 14 3d
       0.017907627 0.0010677656 0.042625934 0.036136847
0003b0 29 8b 10 3d a4 92 3f 3b f6 e2 9f 3c a7 24 da bb
       0.035288963 0.0029231692 0.019517403 -0.0066572013
0003c0 c5 9b ab bd 4e cb 83 ba 4b 36 5e bd ef 5f 9e 3d
       -0.0837932 -0.0010055096 -0.054250997 0.07733142
0003d0 27 08 d8 bd d4 c9 8b bd f7 11 6e 3d d0 74 43 bc
       -0.1054843 -0.06825605 0.0581226 -0.011929706
0003e0 76 3e 4f bd f7 c2 64 3c ae e1 0b bb 39 00 6a 3d
       -0.050596677 0.013962499 -0.0021344232 0.05712912
0003f0 70 9a ff 3c 24 4f c9 3c 7c 2e 6e bd ef 9e 4e 3d
       0.031201571 0.02457387 -0.0581498 0.05044454

fc2.bias f4 [256]
000000 ad 9d 34 bd ce e9 4f bd 79 85 9b 3d cd d2 3f bd
       -0.044095684 -0.050760083 0.07593817 -0.046831895
000010 4b 20 a4 3c a3 53 26 bd cb 11 07 3c 45 18 ce 3c
       0.02003493 -0.040607106 0.008243988 0.025158057
000020 4d e4 8c 3d f8 77 a6 bc 66 75 a0 bc 42 30 50 3c
       0.068794824 -0.020320877 -0.01958723 0.012706818
000030 75 f4 58 3d dc c3 c6 3a 83 55 26 3d 34 ad 91 bb
       0.052967507 0.0015164572 0.040608894 -0.0044456962
000040 e6 a2 2d bd e6 43 dd bb b3 4d 9d 3c 33 9c 52 3d
       -0.04239168 -0.006752479 0.019202089 0.051418494
000050 0a 76 da 3c d5 bf a1 3c a1 95 1d 3d 0c 55 b9 bc
       0.026667614 0.019744793 0.038472775 -0.022623561
000060 85 5c f1 3c 60 23 48 3b 7d d8 67 3c 64 52 b2 3c
       0.029463062 0.0030538663 0.014150736 0.021767803
000070 47 ab 47 3d a6 c9 29 3d a5 ac b9 3d 81 c6 96 3d
       0.048747327 0.041452073 0.090661325 0.0736208
000080 d1 aa d1 3d a1 b8 93 bc bb dc 82 bd 75 81 08 bd
       0.10237659 -0.018032374 -0.06389757 -0.033326585
000090 fd a4 a2 bd 7f d2 1e 3d 54 02 5c 3b 53 07 83 bd
       -0.07941625 0.038774963 0.0033570724 -0.06397881
0000a0 16 eb 38 bc 50 35 a7 3d cb 8d 8b bc 21 94 1b bd
       -0.011286518 0.081644654 -0.017035386 -0.037983064
0000b0 b3 b3 91 bc 9a a9 6c bc cd be 1f 3d d4 d9 43 bd
       -0.017785883 -0.014444733 0.03900032 -0.04781516
0000c0 a3 e4 be ba fb 3e fc 3c 81 e2 fb 3c b3 e3 bf bc
       -0.0014563989 0.03079175 0.030747654 -0.023424005
0000d0 a0 e7 e8 bb a1 0c 93 3b dc c6 25 bc 38 8c a7 3c
       -0.00710769 0.0044875895 -0.010118213 0.020452604
0000e0 bf ef 6a 3c 7f 99 5c 3d b3 1b 48 3d e6 d1 b4 3c
       0.0143393865 0.053857323 0.04885454 0.022072744
0000f0 5e f8 80 3c ac 10 ff 3c e7 59 80 3b b6 a0 b2 bc
       0.01574343 0.03113588 0.003916967 -0.021805149
000100 04 71 1f 3c 3e f2 97 3c a0 88 80 3c 63 ec 91 3d
       0.009731535 0.018548127 0.015690148 0.07125165
000110 03 30 0f 3d fd 31 3a 3d 85 0e ab 3c dc aa 43 bd
       0.034957897 0.04545783 0.020880947 -0.047770366
000120 0c 5b 98 bc 8d 9e 90 3d 8c a2 c9 3b c5 99 c1 ba
       -0.018598102 0.07061491 0.0061534103 -0.0014770558
000130 5a e8 e2 3c 0d 48 30 bd 1f 41 b1 3d 8f 11 41 3b
       0.027698684 -0.043037463 0.08654999 0.0029459929
000140 87 19 e2 bc 06 81 9a 3c fe 2a f6 bc 3c bd 8b 3d
       -0.027600063 0.018860351 -0.030049797 0.06823203
000150 3a 97 1e ba 25 c3 64 bb b4 a7 4a bd 60 23 19 3d
       -0.0006049756 -0.0034906354 -0.04947634 0.03738725
000160 c3 38 9c bd f1 73 e1 bc a2 54 4d 3d 29 b5 e5 bb
       -0.07628014 -0.027521105 0.05012954 -0.0070101214
000170 08 62 13 3d f3 fe 88 3c 34 11 17 3d 44 8d 5d bb
       0.03598216 0.016723132 0.03688164 -0.0033806125
000180 e9 7b ea 3c 23 07 6f 3d d5 9e 31 bd 75 3a 82 bd
       0.028623538 0.058356415 -0.043364365 -0.06358806
000190 68 1b b0 bc 2c 78 27 bd 2c c4 27 3c 40 6d 8a bd
       -0.021497443 -0.04088609 0.010239642 -0.06759119
0001a0 5e b4 33 3d 28 7d ca bb 76 79 b4 3c 80 96 73 3d
       0.043873183 -0.0061794706 0.022030573 0.0594697
0001b0 b6 80 8d 3d ac ca 59 bd 66 30 84 3d 73 a3 24 bc
       0.06909315 -0.0531718 0.06454544 -0.010048735
0001c0 08 ff 15 3c b9 21 21 3c ec d2 03 3d 1a fa 74 bc
       0.0091550425 0.0098347 0.032183573 -0.014952207
0001d0 85 f2 d3 bc 4d a7 42 bc ba 89 80 3c c5 23 8a ba
       -0.025872478 -0.011880708 0.015690673 -0.0010539225
0001e0 12 a4 e5 3c 30 73 1f 3d 09 0d 94 3c 61 85 47 3c
       0.028032336 0.03892821 0.018072622 0.012177796
0001f0 64 db b5 3c 38 12 31 bc 6c 0d 40 bd 75 f5 81 bd
       0.02219934 -0.010807566 -0.0468878 -0.06345645
000200 7d 8c bd 3d 63 41 d4 ba eb 52 8c bc 9b fc 1c bd
       0.09255312 -0.0016193803 -0.017129382 -0.03832684
000210 9d 54 92 3b 55 4d 3e bd 77 7b e2 bc cd 8f b1 bc
       0.004465653 -0.04646047 -0.027646763 -0.021675015
000220 cc e4 92 3b ae 5f 35 3d 01 01 2c bc c0 37 e8 3c
       0.004482841 0.0442807 -0.010498286 0.028346896
000230 72 b4 ac bc eb ee 73 bd eb c4 96 3c 80 5f a7 3d
       -0.021082137 -0.05955402 0.018404445 0.08172512
000240 50 f1 aa bd a8 8d 57 bd c2 a0 8a bc 68 ea 58 3d
       -0.08346808 -0.05262533 -0.016922358 0.052957922
000250 89 6f 66 bd 16 e3 77 3d 5d 50 cf 3c 13 12 2f bd
       -0.056258712 0.0605193 0.025306875 -0.042741846
000260 73 1a 8b 3c 9a 6d 01 bd 69 65 82 bc f3 1e 51 bd
       0.016980385 -0.031598665 -0.015917497 -0.051054906
000270 a3 09 81 bd 04 5c 35 bd 4c 0e 54 3c 73 11 4d 3c
       -0.06300666 -0.044277206 0.012942862 0.012516367
000280 6d a0 70 bc 50 42 b6 3d 98 7a ad bc b6 89 fa bc
       -0.014686686 0.08899367 -0.021176621 -0.030583244
000290 c0 08 35 3d cf 68 72 3d 39 94 9d 3c 91 86 71 bb
       0.044197798 0.059181985 0.019235717 -0.003685389
0002a0 ed 78 b9 3c eb d0 c2 39 5e ab 34 bd aa 71 79 bc
       0.02264067 0.0003715822 -0.04410874 -0.0152248535
0002b0 21 9e 0d 3d d5 57 a5 bc 9b 3d 05 3d 2a 71 b6 3c
       0.03457463 -0.020183483 0.032529455 0.022270758
0002c0 c7 6a ed 3b d5 66 9e bd fc 54 30 bd 4c 38 e1 3c
       0.007245395 -0.077344574 -0.043049797 0.027492665
0002d0 28 81 18 3c 70 49 5f bd c3 de 3a bc 00 25 14 3c
       0.009308137 -0.054513395 -0.01140565 0.009042025
0002e0 48 c2 ae 3c e4 91 4f 3d 79 64 3c bd 98 df 9e bd
       0.021332875 0.05067624 -0.045994256 -0.07757491
0002f0 fe 6e 2f bd 11 51 eb bc 3c e5 34 bd ac 47 c3 bc
       -0.04283046 -0.028725179 -0.044163927 -0.023837887
000300 da d9 83 bd 94 66 68 bd 9e 6d 31 3c 70 57 06 bd
       -0.06438036 -0.05673845 0.010829357 -0.03279823
000310 18 93 00 3d 04 9a 25 3d eb ef 25 3c 8b d9 61 bc
       0.03139028 0.040430084 0.010128002 -0.013784776
000320 1a db ee bb 43 9c 02 bd 2c e9 93 bd dc 10 91 3c
       -0.0072893025 -0.031887304 -0.072222084 0.017708234
000330 a4 40 29 bc 47 04 ec 3b 90 0b 77 3d a5 a0 8a bc
       -0.010330353 0.0072026583 0.06031376 -0.016922304
000340 1c 15 94 3d b2 89 6e 3c 57 7c 9a 3c 1d fd b0 3b
       0.07230589 0.014559196 0.018858118 0.005401267
000350 c9 06 e0 3c 63 62 12 bd 78 27 09 3d 7e b6 68 bd
       0.027346985 -0.03573836 0.033484906 -0.056814663
000360 ff fc 2d 3d 9b 12 84 bd 2b 9d 08 bd 97 6b e3 bc
       0.042477604 -0.06448861 -0.033353012 -0.027761264
000370 84 1a 80 bd 35 7e 26 bd c7 8e c0 bc 81 75 c6 3a
       -0.062550575 -0.040647704 -0.023505582 0.001514122
000380 1f 97 00 3d 94 33 cd bc 6a 18 6c bc c8 8b 77 bc
       0.03139412 -0.025049008 -0.014410118 -0.01510901
000390 d9 8f d2 3c ff 54 8e 3b 94 93 37 bd eb fe 65 bd
       0.025703358 0.0043436284 -0.044818476 -0.05615131
0003a0 20 d2 89 bc 53 32 10 bd b7 3a 6e 3d 89 83 6b 3d
       -0.016823828 -0.035204243 0.058161464 0.05749849
0003b0 48 80 6c 3c 3b f3 9b bd 26 66 50 3d 00 b1 c7 bc
       0.0144348815 -0.07614752 0.050878666 -0.024376392
0003c0 be ab 87 ba 20 f1 9f bc 77 63 89 bc 85 98 65 3d
       -0.0010350866 -0.019524157 -0.016771061 0.056053657
0003d0 ce f0 82 bd 7a 5f 09 bc 27 33 ef bc cb 07 18 3d
       -0.06393586 -0.00838458 -0.029199196 0.037116807
0003e0 e0 61 21 bd 8e 22 09 3d b2 e3 e3 bc 05 9d 4a 3d
       -0.03939998 0.03348022 -0.027818535 0.04946615
0003f0 9d bc af bc 08 19 ca ba 4d 97 84 bd c1 e2 40 bd
       -0.021452243 -0.0015418837 -0.06474171 -0.04709125

fc3.weight f4 [128, 256]
000000 c4 b4 e3 bd 7b 30 43 3b 40 ff ea bc 3a 6c b8 bd
       -0.11118463 0.0029783535 -0.028686166 -0.090050176
000010 cf 5b 9f bb 50 a1 04 bd 77 4b df bd b5 8e 82 bd
       -0.0048632394 -0.032380402 -0.10903066 -0.063748755
000020 d8 30 c1 3d a4 68 8d 3c bd 38 ff bc a6 2f dd 3c
       0.09433144 0.01726181 -0.031154985 0.02700026
000030 c6 a5 82 3c 63 c6 34 bc 9b 63 db bb 1b 96 96 3d
       0.015948188 -0.011033627 -0.0066952235 0.07352849
000040 4d ec 36 bc ae 97 84 3c ad 66 12 bd ce 64 a3 bd
       -0.011164737 0.016185608 -0.03574245 -0.07978211
000050 57 c8 d3 3d 9f 57 03 3d 43 9f 90 3d 10 73 3e 3d
       0.10340946 0.032065984 0.07061627 0.04649645
000060 e0 0d 1d bd 0e 14 33 3d f9 81 4f 3d 82 91 b0 3d
       -0.03834331 0.043720298 0.05066106 0.086215034
000070 9f a7 a3 3d c2 94 e1 3c fb 9b e3 3d be 42 eb bd
       0.079909556 0.027536754 0.11113735 -0.114873394
000080 86 80 9e 3c f5 41 5c bc 64 78 e7 3c 2a 67 97 bc
       0.019348394 -0.01344346 0.028255649 -0.01848181
000090 76 c4 27 bd 0d 7a 84 3d 31 1f 38 3d 08 6a a8 bd
       -0.040958844 0.06468592 0.04495162 -0.08223349
0000a0 42 18 2a bd 39 20 5c bd 4e fe 15 bd 79 71 0e 3e
       -0.04152704 -0.053741667 -0.036619477 0.13910474
0000b0 db 42 b7 3b c1 ec ce bc 1b 5a 42 39 e0 93 a9 bc
       0.0055926866 -0.025259377 0.00018534849 -0.020700395
0000c0 6a 7f 49 bd 6d 9c 9a bc 68 6e 72 3d 70 84 66 bd
       -0.049193777 -0.018873418 0.059187323 -0.056278646
0000d0 11 45 28 3d ce df 39 bd 3f a3 01 3d 5a b2 38 bb
       0.04108149 -0.045379452 0.031649824 -0.0028182478
0000e0 2f 3a 03 be 17 d6 f3 3b 00 00 c9 bb ca e4 1c 3d
       -0.12815164 0.007441293 -0.006134033 0.038304128
0000f0 d9 38 22 bd bb 29 1a 3c 1a 40 1a 3d d2 8e b5 bd
       -0.039604995 0.009409363 0.03765879 -0.088651314
000100 40 45 c3 3d 74 2c 0c be 3f 42 9d bc 05 ad bb 3d
       0.09534693 -0.13688833 -0.019196628 0.0916386
000110 ab 23 8e bd b6 b8 16 bd 59 98 c4 3d eb 45 b4 3c
       -0.06940397 -0.036797248 0.095993705 0.022005996
000120 ae 08 d0 3c 4e 85 08 be 5f 25 bc bb 40 23 61 bb
       0.025394764 -0.13332102 -0.0057417597 -0.0034353286
000130 10 cf 33 3d af eb 6c 3d 35 0f d5 3b 58 f3 5a 3d
       0.043898642 0.057841953 0.006502057 0.053454727
000140 5c df 20 3d 83 16 94 3d 9f f3 f0 3d aa 51 ce 3d
       0.039275512 0.07230856 0.11765217 0.1007417
000150 4e 3f 75 bc f8 48 50 be 9c b3 19 3d af c5 82 bd
       -0.014968706 -0.20340335 0.037524804 -0.063853614
000160 e3 50 63 3d fb 48 26 3d 0f 67 4a bd 1c b1 6b bd
       0.05549706 0.040596943 -0.04941469 -0.05754195
000170 e1 a8 d1 3c 4d 2f 67 bd e4 41 db 3d 45 43 88 3d
       0.025593223 -0.056441594 0.10705927 0.06653456
000180 17 97 f6 bb 51 23 00 bd 8b f5 85 3c 84 f3 37 bd
       -0.0075253355 -0.03128368 0.016352436 -0.04490997
000190 10 ef b2 3d e1 47 75 3d 2a e0 d4 3a 6b de df bd
       0.08737004 0.059883002 0.0016241123 -0.10931095
0001a0 3a 74 06 bd d5 c8 f1 3c 05 2b 01 bd ba 82 c4 3d
       -0.032825686 0.02951471 -0.031535167 0.095952466
0001b0 07 94 b2 bd e0 96 14 3e 22 a6 04 3a 98 04 86 bb
       -0.0871964 0.14510679 0.0005060156 -0.004089903
0001c0 52 d6 25 bc 36 91 d6 bd b4 35 f0 bb c7 85 a9 bd
       -0.010121899 -0.104769155 -0.0073306207 -0.08277469
0001d0 0f 34 65 bd d3 e0 5d bd 8b f3 b4 bd 75 dd 31 b9
       -0.05595785 -0.054169487 -0.08835515 -0.00016962535
0001e0 38 fd c4 bc 32 a4 38 3d 05 b9 9b 3c bb 9b 55 3d
       -0.024046525 0.045078464 0.019009123 0.05215047
0001f0 67 65 84 bd df bb 04 3d be 98 ad 3d 92 41 1d 3d
       -0.064646535 0.03240573 0.08476399 0.03839261
000200 78 7a 3c bd d0 ce 03 bd 15 39 e3 bc d9 0b 7f bd
       -0.046015233 -0.032179654 -0.02773718 -0.06226716
000210 4e fa f7 3d 2a 82 80 3d 3a 26 2f 3c 28 7c 2f 3d
       0.12108289 0.06274827 0.010690266 0.042843014
000220 cd 56 f2 bc 91 6b 95 bd 8e 59 02 3d 23 2f 12 bd
       -0.029582405 -0.07295907 0.031823687 -0.035689484
000230 92 c0 3c bb c5 6e ef 3c b7 13 1a 3b 99 eb 1b 3d
       -0.0028801304 0.029227624 0.0023510286 0.03806648
000240 84 61 24 bd 89 2c 9d bc 50 11 5c 3d ad 01 fe b9
       -0.04013206 -0.019186275 0.053727448 -0.00048447904
000250 91 33 07 bd 74 8f ee 3b 03 e8 cf bd 09 e9 c0 bd
       -0.033008162 0.0072802845 -0.101516746 -0.09419448
000260 45 b1 1f 3d e1 18 c1 bd 32 23 6e 3d 76 4e 9a bd
       0.038987417 -0.094285734 0.058139034 -0.075344965
000270 66 56 01 3d 1b 84 9e bd d4 2f 71 3c fe 5c b6 3d
       0.031576537 -0.07740041 0.014720876 0.089044556
000280 29 68 91 bc 68 63 c0 bc 95 f3 d4 3b b8 da b1 3c
       -0.017749863 -0.0234849 0.006498764 0.021710739
000290 ea af b2 3d 7e cd 35 3b a1 f9 9e 3d e6 a9 92 bd
       0.08724959 0.002774089 0.07762457 -0.07161312
0002a0 b6 cd 3d bd 8a d9 eb bd 2e 3f 30 3d b5 20 59 bd
       -0.04633876 -0.11516102 0.043029003 -0.053009707
0002b0 84 f6 a4 bd 50 44 98 bd 0f d5 49 3d 05 80 bc 3c
       -0.080548316 -0.074349046 0.049275454 0.023010263
0002c0 e6 af ce bc 50 09 0f 3d fb b3 e5 3d 46 af dc 3a
       -0.02523036 0.03492099 0.11215969 0.0016836904
0002d0 4f ad 8d 3d c8 d6 88 3c ad 1d b3 3d 5e 70 87 3d
       0.069178216 0.016703978 0.087458946 0.06613229
0002e0 86 fe 06 be 5a 35 54 bd 25 c8 0a 3d 51 6e 5a bd
       -0.1318303 -0.051808693 0.03388228 -0.053327862
0002f0 2a 0b 07 3d 64 54 89 bd c1 ba 69 3d 37 d4 19 bc
       0.03296963 -0.06705549 0.057062868 -0.009388975
000300 d2 af ba bd c7 a2 31 3d d5 31 04 3d b1 e6 e1 3c
       -0.09115566 0.043368127 0.032274086 0.027575823
000310 5b a7 36 bc b5 1e 0e bd e0 db ba 3b 07 47 94 3c
       -0.011148299 -0.034697253 0.0057024807 0.018100275
000320 91 36 d4 3a dd d5 3c bc 0a bb b2 bd 7f 4b 1c 3d
       0.0016190578 -0.011525598 -0.08727081 0.038157936
000330 a7 bd 44 bc 04 cc 4a bd e0 85 a4 3d d9 64 bd 3c
       -0.012008107 -0.04951097 0.08033347 0.023119377
000340 08 18 1a bd 25 b3 4d 3d d5 1b 40 3d 40 2a 59 bd
       -0.037620574 0.050219674 0.046901543 -0.05301881
000350 57 0c 0f 3e 3e 4a 98 3b d8 fa a4 bc 40 4b 07 bc
       0.13969551 0.0046475222 -0.020139143 -0.008257687
000360 5c ff 53 3d a4 aa fb bd ae e0 41 3c 5b 0f d5 3d
       0.0517572 -0.122884065 0.011833353 0.104033194
000370 7e d1 ba bd ee 4a db bb c3 1a 99 3d 83 cc e9 bb
       -0.09121989 -0.006692282 0.074758075 -0.0071349754
000380 ce d9 85 bd 19 20 9e 3d fe 2b da bd ae fa 90 3c
       -0.065356836 0.07720966 -0.10652922 0.017697658
000390 1b 57 8c bd 39 a2 d1 3c 3e 63 84 3d 06 1d d0 bd
       -0.068525515 0.02559005 0.064642414 -0.10161786
0003a0 a4 4f 11 be b8 4d c7 3a 10 c7 24 bd 66 35 18 3d
       -0.14190537 0.0015205657 -0.040228903 0.0371603
0003b0 8f 87 81 bd 17 77 cf 3b ab a8 bb bd ab f3 37 bd
       -0.06324684 0.0063313353 -0.0916303 -0.044910114
0003c0 76 02 79 3d 50 3b 9b 3d 85 69 02 3d fd 41 6b 3c
       0.060793363 0.07579672 0.031838913 0.014358995
0003d0 8b 81 03 bd 8b 76 1a 3c 14 3f d5 bc 15 7f af bd
       -0.032105964 0.009427677 -0.026031055 -0.08569161
0003e0 fe a6 8a bc ff 33 3a bd 4a 26 cc 3b 93 f8 9a 3c
       -0.016925331 -0.045459744 0.0062301503 0.018917358
0003f0 97 25 e3 bc 2b 0d 0d be df ef 16 bb 4e d6 cc 3d
       -0.027727885 -0.13774554 -0.0023031158 0.10001813

fc3.bias f4 [128]
000000 2c 40 1a bd 45 97 23 3d 5f ea f0 3c 14 fb 57 3d
       -0.037658855 0.039939184 0.029408632 0.05272968
000010 ee ad db 3d e1 1c 86 bd 4e b8 5e bd 9a ce de bc
       0.10726534 -0.06548477 -0.054374985 -0.027198125
000020 2a fa 2d 3c e7 c5 9f bb e9 22 bb bc 9d d5 ad 3b
       0.010618726 -0.0048758867 -0.022843795 0.0053050057
000030 fb c3 64 bd c2 1f fe 3a 7e f5 99 bc f9 3c 9d bd
       -0.055850964 0.0019388127 -0.018793818 -0.07677645
000040 f6 0e 91 bd fc e3 57 3d bd c1 53 3c 36 59 18 3c
       -0.07082932 0.052707657 0.012924609 0.009298613
000050 df 9e a0 3a cc 20 e7 bc 3f fe 5e bd b2 e3 89 3d
       0.0012254379 -0.028213881 -0.054441687 0.067328826
000060 10 46 88 bd 5c 37 a7 bb 02 57 0e bc f6 11 b6 3d
       -0.06653988 -0.005103035 -0.0086877365 0.088901445
000070 4f f8 4e 3c 4c 23 30 3d 60 de 76 3d 1b a6 a8 bd
       0.012632444 0.04300241 0.060270667 -0.08234807
000080 56 3c 1e bd 6a 59 9e 3b c7 16 06 3d 99 83 c5 3c
       -0.03863176 0.0048324363 0.032736566 0.024110602
000090 01 3e b1 bc 14 c8 d1 3c 27 b2 86 bd ae 4c 3f 3d
       -0.021636011 0.0256081 -0.065769486 0.046703987
0000a0 e3 67 4b 3d fe f3 b7 bb a5 a1 b8 bd 3c f5 2e bd
       0.04965962 -0.005613803 -0.09015206 -0.042714342
0000b0 8c 9c a3 3b 3d fa 2b 3c 61 ee 71 bd f2 a6 92 bb
       0.004993027 0.010496673 -0.059065226 -0.004475468
0000c0 50 e9 3b 3b fc bc 85 3c c6 80 58 bd 46 ce 9c bd
       0.0028673 0.016325466 -0.052857183 -0.07656531
0000d0 da 8e 62 bd 64 ed 13 3d e6 5d 5a bc 5d 91 07 3d
       -0.055312015 0.036115065 -0.013328051 0.033097614
0000e0 91 4d 88 3d 12 6b fb bb 5c 14 8c bd 25 89 cb 3d
       0.066554196 -0.007672676 -0.06839821 0.099382676
0000f0 0e e9 80 3d 75 a1 0a 3d ae 3a bb bd 40 b1 21 bc
       0.06294452 0.033845384 -0.09142052 -0.00986892
000100 9a 73 ea bc 97 4b f1 3d 4d f7 6a b9 d6 63 2b 3c
       -0.028619576 0.11781996 -0.00022408106 0.010460814
000110 c8 87 cc bb 2d a6 65 3c 04 18 2f 3d ec a6 62 3d
       -0.0062417723 0.01401667 0.042747512 0.05533497
000120 38 ee 9a bd 64 5a fa bc 96 81 48 bd 4a 10 b1 bb
       -0.07564968 -0.03056068 -0.048951708 -0.005403553
000130 d5 64 d8 3c 4b 2e fb 3c ff 55 61 bc b0 7e 97 3d
       0.026415268 0.030661723 -0.013753413 0.073972106
000140 31 07 e9 3d 7c 0d 7d 3d 92 2b 44 bc c0 5a 86 3d
       0.11378325 0.061780438 -0.011973279 0.06560278
000150 2e e3 32 bd 75 fb a0 3d 66 74 a6 3c d5 8c ba 3d
       -0.043673687 0.078604616 0.020319175 0.09108893
000160 6b 0f bf 3c 93 c4 b3 bc ff ce 60 bd 98 56 1a bd
       0.023322782 -0.02194432 -0.054884907 -0.03768024
000170 ba ac 46 3b 98 b9 e7 3c 83 34 66 3d df 1e ea 3b
       0.0030315355 0.02828674 0.056202423 0.0071447934
000180 6a 3a d8 3d 44 fb 48 bd 01 47 b5 3d c6 b1 e6 3c
       0.105580166 -0.04906775 0.088514335 0.02816094
000190 d5 b5 2e bc e7 44 7d bd 83 9b 9e bd 24 78 8b 3d
       -0.010663469 -0.06183329 -0.07744505 0.068100244
0001a0 da b6 3f 3d a5 39 c1 3d 6d 6b bf 3d b3 1c c8 bc
       0.04680524 0.09434823 0.09346662 -0.024427747
0001b0 4d 75 00 3d b8 f2 7f ba dc 74 84 bd 9e 2d 99 3d
       0.031361867 -0.0009763646 -0.06467602 0.07479404
0001c0 2d 06 98 3d f3 3b 44 3d 30 88 ee 3c aa 36 a7 3c
       0.07423053 0.047908735 0.029117674 0.020411808
0001d0 d2 21 04 bd 65 a7 1c 3c 55 18 b9 3d 52 70 94 bc
       -0.032258816 0.009561394 0.09037844 -0.018119965
0001e0 68 b5 86 3c 8f 91 09 bd 0a 14 a7 3d 68 5c 8e bd
       0.016443923 -0.03358608 0.08158119 -0.06951219
0001f0 0d e2 41 3d 88 7f 0b 3d df 5e 85 3d c4 c8 93 3d
       0.04733472 0.03405717 0.06512236 0.072160274

fc4.weight f4 [1, 128]
000000 0e 73 96 bd 1b 4f 06 3d 46 40 14 3e ff 4a 49 3d
       -0.07346164 0.032790285 0.14477643 0.049143787
000010 78 f3 2d 3d 29 db 58 bd f8 47 18 bd 44 0e d6 bc
       0.042468518 -0.052943382 -0.03717801 -0.02612985
000020 17 d3 54 3d c5 e7 33 3e d5 49 bd bd 58 ba 35 bd
       0.051959123 0.17568882 -0.09242598 -0.044367164
000030 2f b1 37 be 2e 8d 14 be ef d7 96 3d c5 ba 0d be
       -0.17938684 -0.14506981 0.07365405 -0.13840778
000040 67 5e c7 bd 1b 4f 16 3e 2d b6 76 3c 77 bd a6 bd
       -0.09734803 0.14678614 0.0150580825 -0.08141606
000050 0f 4b 25 3e c5 75 e2 3d a4 b9 2b bd 9b d4 d5 3d
       0.16141914 0.11057619 -0.041925088 0.10440942
000060 f4 f4 a6 bd 9e b2 b6 bd b8 42 44 be 5a 1d 94 3b
       -0.0815219 -0.08920787 -0.19166076 0.0045201005
000070 e0 74 82 3d 66 d7 c6 bd c8 06 80 3d bc f5 be bd
       0.063699484 -0.09709053 0.062512934 -0.09324214
000080 3f 83 0c be 29 54 80 3d 49 4d 8d 3d 27 e9 42 bd
       -0.13721941 0.06266052 0.068995066 -0.047585633
000090 27 19 9e 3d 87 88 0b 3e d8 2b d1 bd db 07 9a 3d
       0.07719641 0.136263 -0.10213441 0.075210296
0000a0 ca e0 18 3d ab 84 bc 3d 85 af e4 bd d3 20 c8 bd
       0.03732375 0.09204992 -0.1116629 -0.09771886
0000b0 b0 bf b6 3d 60 b5 83 3d 94 bf e2 bd d5 f4 86 3d
       0.0892328 0.06431079 -0.11071697 0.06589667
0000c0 af 10 cc bd 2c 6b 00 be 12 21 91 bd a0 14 5d bd
       -0.0996412 -0.12540883 -0.07086386 -0.053974748
0000d0 21 5d 88 bd af c0 ac bd f9 d0 8b 3d ca 8a 9c 3d
       -0.06658388 -0.08435189 0.06826968 0.076436594
0000e0 0a 75 56 3d 77 71 c7 3d 2d 69 c4 bd e0 30 e6 3c
       0.05235771 0.097384386 -0.09590373 0.028099477
0000f0 23 c9 d2 3d e7 49 98 bd de bb b8 bd fe be 72 bd
       0.1029227 -0.07435971 -0.09020208 -0.059264176
000100 a3 31 17 3e ed 54 e0 3c 4e 2b 87 bd 61 0d 58 3d
       0.14765029 0.027384246 -0.066000566 0.052747134
000110 50 41 8c bd d0 52 a6 bd b6 32 c9 3d b5 8d cf 3d
       -0.06848395 -0.08121264 0.098241255 0.1013445
000120 dc ce 28 be e2 a4 fa 3d 17 00 c3 bd a2 37 66 bd
       -0.1648516 0.1223848 -0.095215015 -0.0562054
000130 ee ac 97 bd 92 8a 7c 3d f1 54 b6 bd df 56 06 3e
       -0.074060306 0.06165559 -0.0890292 0.13119076
000140 82 0c 8b 3d f4 5a c7 3d 44 30 1d 3e 3b f4 e8 3d
       0.06789495 0.09734145 0.15350443 0.11374708
000150 ad 34 dc bd 09 91 89 3d e7 7f 85 3c c5 3f b7 3c
       -0.107522346 0.067171164 0.01629634 0.022369275
000160 95 13 e3 3d 3d 94 01 3e 3b d3 07 bd c1 60 9b bd
       0.11087719 0.12654205 -0.03316043 -0.07586814
000170 41 bd 12 be de 79 11 3e ac ed 83 3d 6e 2b 15 be
       -0.14330007 0.14206645 0.06441817 -0.14567348
000180 07 5a 8c 3c 64 0c b3 3d a7 b7 26 3d b0 6d a7 bd
       0.017132772 0.08742598 0.04070249 -0.08175218
000190 3c 84 36 bd 52 0a aa 3d 1c 4e a6 bd 42 80 e2 3d
       -0.044559702 0.0830275 -0.08120367 0.110596195
0001a0 0d 5d 12 3e 2a 3f 24 3e 16 70 06 3d 7b 44 15 3e
       0.14293309 0.1603972 0.032821737 0.14576904
0001b0 ae f6 bf bd 6e a3 20 be 79 d9 92 bd 73 8c 70 3d
       -0.09373222 -0.15687343 -0.07170386 0.058727693
0001c0 7f 44 11 3d 3c d4 83 3d a8 b2 8d 3d 42 8c e0 bd
       0.035465714 0.06436965 0.069188416 -0.10964252
0001d0 fc 35 5c bd c9 e8 c5 bd a2 e4 c4 3c 6a dd 80 3d
       -0.05376242 -0.09663541 0.024034802 0.062922314
0001e0 4e e5 d1 3d 4b cb 16 bd 62 55 17 3e c8 46 d4 bd
       0.102488145 -0.03681497 0.14778665 -0.10365063
0001f0 a5 ab 0c 3e e3 66 45 3e 66 3d c9 3d be 71 87 3d
       0.13737352 0.1927753 0.09826164 0.066134915
