checkpoint_actor.pth (torch_old, 39701 bytes, 4 tensors)

fc1.weight f4 [256, 33]
-0.29596543 0.11946741 0.03975611 -0.15259017 0.020538101 -0.002926671 -0.0065772757 0.17553219
0.19995852 0.04420392 -0.021075161 -0.07955007 -0.062258754 -0.19601998 -0.03272634 0.22630642
0.0593843 0.14112788 0.07309932 0.094313055 -0.02161416 -0.036999226 -0.026561065 -0.04033192
-0.16479366 -0.10757127 0.23000075 0.08588209 -0.07480867 -0.025089256 -0.08675454 0.019987427
-0.6247653 -0.13819227 0.11035223 0.06517382 -0.07520303 -0.110918164 -0.036302403 0.037723757
-0.09960864 0.15767692 -0.09435715 -0.1851413 -0.02860677 -0.067914404 0.15123993 0.00680889
-0.0028262795 0.023639282 0.11005682 0.0067935614 -0.04644542 -0.09153062 -0.14406933 -0.22323766
-0.014324799 0.03150305 -0.0016145549 0.22458267 0.039900128 -0.2545239 -0.054106437 0.045303326
-0.0445344 -0.55845493 0.17327426 0.010002874 -0.119976126 0.034516342 0.036982268 -0.05900483
-0.06750283 0.036463886 -0.035058357 -0.06331228 -0.09393155 0.049750704 0.0377694 0.090345405
0.018321468 0.13064632 -0.025382284 0.005593588 0.0460184 -0.047944684 -0.12870528 -0.054960076
-0.11407245 0.26238868 -0.07292632 0.0016567305 -0.2586487 -0.21380702 0.019167738 -0.0035837442
0.31790122 -0.04661139 -0.38410637 -0.19089442 -0.15419407 0.016274929 -0.10074664 0.03703045
0.016353624 -0.07526285 -0.014683 0.15812775 0.020860584 0.13149957 -0.0934944 0.04742145
0.013289284 -0.1671423 -0.29001302 -0.05698275 0.07089946 -0.0810483 -0.057910014 0.054989103
-0.06279162 -0.10848612 0.12195362 -0.10808126 0.038057353 0.08582043 -0.11637455 0.18860416
-0.04630091 0.12950131 0.025270022 -0.010063719 -0.015727006 0.026343549 -0.076318875 0.016446004
0.048397955 0.02994047 -0.05305135 -0.011784898 -0.038510524 0.053705927 0.046338987 -0.08390417
0.01868562 -0.16528514 -0.2315713 0.10485482 0.10058296 -0.025650797 -0.063692614 0.024305752
-0.054748226 -0.07312946 -0.017586028 -0.12471729 -0.10343903 0.056285113 0.18651131 -0.0051385965
0.18311799 -0.044676952 -0.016016858 -0.00985311 -0.55750114 -0.24101165 -0.03103575 0.11453275
-0.04168446 0.07234575 0.03555345 -0.10850397 -0.04861882 0.0030245634 -0.011907912 -0.10220303
-0.09596274 -0.12481923 -0.10627786 0.043916028 0.19577146 -0.14062023 0.061857972 -0.098268375
0.030164111 -0.05850711 -0.09412712 0.021614447 -0.01985176 -0.09954005 0.17822845 -0.3067856
0.0020706572 0.0019545816 0.05647047 -0.0880644 -0.06160239 -0.071546614 0.08347897 0.017279938
-0.09308964 0.031425357 0.09238827 0.0896598 -0.02148716 -0.17528762 0.20989259 0.2860375
0.098815024 -0.04101366 -0.024808032 0.14081992 0.0050334167 -0.11150392 0.03541017 -0.09587648
-0.024898116 -0.03625991 0.10549167 -0.056293126 0.054943506 0.0002513519 0.098869696 -0.21972732
-0.047507048 -0.15597224 -0.24573244 -0.029228464 0.14169633 -0.004334748 -0.2479751 -0.16898514
0.052679032 -0.006138479 -0.08150768 0.010250177 0.03188156 0.061698005 0.10060162 -0.076837726
-0.008067911 -0.07714836 -0.08949098 -0.06742457 -0.103190236 -0.027011098 0.22424173 0.08118551
0.12220248 0.06524627 -0.0044894116 0.013757744 0.04271276 0.111946166 0.027648242 -0.1704625
00000000: c888 97be 54ab f43d 4ed7 223d 9940 1cbe
00000010: 853f a83c 64cd 3fbb 3086 d7bb b6be 333e
00000020: edc1 4c3e 2b0f 353d d1a5 acbc 26eb a2bd
00000030: 0903 7fbd 76b9 48be 0e0c 06bd dfbc 673e
00000040: f43c 733d d483 103e 19b5 953d 3427 c13d
00000050: 2e10 b1bc 808c 17bd 9796 d9bc 1533 25bd
00000060: abbf 28be 534e dcbd 5185 6b3e f3e2 af3d
00000070: 4a35 99bd fc87 cdbc 5dac b1bd acbc a33c
00000080: 9ef0 1fbf 4682 0dbe 5a00 e23d da79 853d
00000090: 0c04 9abd 1029 e3bd d4b1 14bd 3a84 1a3d
000000a0: 9dff cbbd 0f76 213e 523e c1bd ae95 3dbe
000000b0: bf58 eabc b516 8bbd a4de 1a3e 1c1d df3b
000000c0: 1a39 39bb 2ba7 c13c 7865 e13d 869c de3b
000000d0: 8d3d 3ebd 6874 bbbd e986 13be 6a98 64be
000000e0: 90b2 6abc 5809 013d 799f d3ba 00f9 653e
000000f0: 516e 233d f550 82be b69e 5dbd fb8f 393d
00000100: b469 36bd e7f6 0ebf cf6e 313e 18e3 233c
00000110: 0bb6 f5bd 0261 0d3d b87a 173d 0caf 71bd
00000120: ec3e 8abd 285b 153d 5a99 0fbd dea9 81bd
00000130: 2f5f c0bd 65c7 4b3d 16b4 1a3d 0307 b93d
00000140: e716 963c 26c8 053e 82ee cfbc 6b4a b73b
00000150: ca7d 3c3d a561 44bd 51cb 03be d11d 61bd
00000160: d19e e9bd cf57 863e 655a 95bd a726 d93a
00000170: 9a6d 84be 3af0 5abe a905 9d3c 40dd 6abb
00000180: f3c3 a23e 96eb 3ebd 97a9 c4be d479 43be
00000190: 0de5 1dbe 0053 853c 4154 cebd 3ead 173d
000001a0: 09f8 853c 6923 9abd f790 70bc 3eec 213e
000001b0: d1e3 aa3c d3a7 063e fe79 bfbd ff3c 423d
000001c0: 4cbb 593c 5a27 2bbe 967c 94be be66 69bd
000001d0: bc33 913d a7fc a5bd 0d33 6dbd 413c 613d
000001e0: e598 80bd f92d debd d2c2 f93d b559 ddbd
000001f0: 07e2 1b3d 9fc2 af3d c855 eebd 7321 413e
00000200: 06a6 3dbd fe9b 043e 1403 cf3c 4ce2 24bc
00000210: ecd5 80bc 6dce d73c 124d 9cbd c5b9 863c
00000220: ef3c 463d b745 f53c 5f4c 59bd 7215 41bc
00000230: 36bd 1dbd bffa 5b3d f3cd 3d3d f3d5 abbd
00000240: 9612 993c 8240 29be 0721 6dbe 20be d63d
00000250: 70fe cd3d 9f21 d2bc 4671 82bd db1c c73c
00000260: ad3f 60bd e6c4 95bd 9310 90bc c76b ffbd
00000270: d8d7 d3bd 388b 663d d2fc 3e3e ac61 a8bb
00000280: 4883 3b3e 2eff 36bd c935 83bc f06e 21bc
00000290: 65b8 0ebf c2cb 76be af3e febc 2590 ea3d
000002a0: 53bd 2abd 022a 943d 7fa0 113d 5437 debd
000002b0: 8724 47bd c137 463b 6719 43bc d24f d1bd
000002c0: 1d88 c4bd 39a1 ffbd 35a8 d9bd 4be1 333d
000002d0: 5078 483e c0fe 0fbe c95e 7d3d ee40 c9bd
000002e0: ba1a f73c 27a5 6fbd b8c5 c0bd c810 b13c
000002f0: 28a0 a2bc a7db cbbd 8581 363e 0113 9dbe
00000300: ddb3 073b 7018 003b 944d 673d 1c5b b4bd
00000310: ca52 7cbd 0887 92bd 06f7 aa3d a88e 8d3c
00000320: c8a5 bebd e0b7 003d 1036 bd3d 8f9f b73d
00000330: d705 b0bc 997e 33be 15ee 563e 8273 923e
00000340: 885f ca3d f1fd 27bd 373a cbbc 1933 103e
00000350: 5cef a43b 2b5c e4bd 410a 113d e35a c4bd
00000360: 22f7 cbbc 4585 14bd 040c d83d 9f93 66bd
00000370: 710c 613d e2c7 8339 327c ca3d 3300 61be
00000380: c096 42bd 30b7 1fbe 49a1 7bbe 8870 efbc
00000390: d818 113e 800a 8ebb 2fed 7dbe 710a 2dbe
000003a0: f8c5 573d 4b25 c9bb 80ed a6bd 5cf0 273c
000003b0: 3d96 023d 0cb7 7c3d 3908 ce3d 195d 9dbd
000003c0: 452f 04bc f6ff 9dbd 0c47 b7bd e515 8abd
000003d0: 6755 d3bd 6146 ddbc a09f 653e 9744 a63d
000003e0: 4b45 fa3d d69f 853d ea1b 93bb 2968 613c
000003f0: 93f3 2e3d 0844 e53d 917e e23c b98d 2ebe

fc1.bias f4 [256]
-0.0019114264 0.061059512 0.14504358 -0.010494888 0.07665404 -0.034342702 0.05095348 -0.18670823
0.07590351 0.29146594 0.12652574 0.19885512 0.15952258 -0.0030217466 -0.16053548 -0.0033118809
0.021176383 0.15261728 -0.18704072 0.09579903 0.09893907 -0.11133065 0.14164029 0.017726026
0.21970603 -0.078055225 -0.025431748 0.17867413 0.2998049 0.07296958 -0.2229283 0.049674906
0.08990292 0.00949789 -0.16356432 -0.25930715 0.016934134 -0.10827935 -0.13458931 0.23054926
0.02898619 0.14096309 0.08589607 -0.09920875 -0.34481043 0.338576 0.19492485 -0.0073192874
0.26638716 -0.021812014 -0.06342222 -0.102474116 -0.0018665976 0.32770497 0.07187555 -0.096018955
0.020582065 0.17595768 -0.09016204 0.38539195 -0.115975045 0.2217992 0.06531334 0.11513904
0.14079002 0.2884356 -0.05425666 0.09984035 0.2043479 0.02722969 0.09232298 -0.14469898
0.21924934 0.09719064 -0.31326216 0.1384379 -0.21418963 0.12127743 -0.13163027 0.10246305
0.010904165 0.0057883207 -0.020119173 -0.17819794 -0.010817267 0.18101093 -0.0579888 -0.006114708
0.21909691 -0.2522823 0.20650287 0.0349253 0.054432847 0.033281635 0.10417752 -0.091856144
0.24828249 -0.02363722 0.14157411 0.124119304 -0.023027284 0.22989377 -0.0946394 -0.12629548
0.02199668 0.16899845 -0.0379468 0.19306001 -0.1468528 0.28096068 0.058531523 0.10798703
0.15802562 0.18836987 0.07166974 -0.092451796 -0.09171151 0.032393966 -0.11731294 0.02467951
0.15777388 0.05877866 0.29944295 0.19105504 0.06562075 0.13833465 0.02676937 0.2594611
0.2567916 -0.046835165 0.30965534 0.26081824 -0.08846643 -0.1565248 0.03232871 -0.2693523
0.20071249 -0.13172434 0.025618216 -0.28009915 -0.30313978 -0.14698942 0.22472297 0.21770693
0.11389953 -0.03328055 -0.051464662 0.08720733 0.20080437 0.023757849 0.17707416 0.111803256
0.060249053 0.039042827 0.034889605 0.20724872 -0.19532973 0.008925886 0.0968018 0.30674163
-0.19334808 -0.20430171 0.21493603 0.1011587 -0.09417778 -0.15380405 0.010742951 -0.005392267
-0.13882004 0.06666368 0.06039932 0.2542079 -0.20499301 -0.23938373 0.28068694 -0.13859402
-0.21750474 0.1269309 -0.05051513 -0.06776419 0.113410585 0.18361077 -0.13220322 0.053109825
-0.1280669 0.20290954 0.18942355 0.039620526 -0.09639047 0.044834044 0.26548022 0.13324714
-0.002710605 0.07271709 -0.18725993 0.20533098 0.19950844 0.19530585 -0.16424116 0.100612715
0.2507033 -0.016319612 0.07874703 0.17050768 0.06718631 -0.0897165 0.16092822 -0.14073013
0.23201025 -0.13550742 -0.27762488 0.24214037 0.059199024 0.0063445526 0.016056024 0.06523843
-0.15223372 -0.12180322 -0.11690584 0.0010309849 0.23298016 0.09420031 0.21599545 -0.027796363
0.07135218 0.053061116 0.15089722 -0.041292693 -0.026825974 0.010852851 -0.3260646 -0.046455644
-0.19559039 -0.085450895 0.025561485 0.030904321 0.053234853 -0.08610259 0.057621848 -0.16938359
0.29019153 0.25515157 0.07265592 0.24968761 -0.32146665 0.16088839 0.031192347 -0.039492097
-0.023545826 0.28765252 0.062244646 0.21129629 -0.027679423 -0.035476025 0.21384193 -0.09413492
00000000: d488 faba 8a19 7a3d 4e86 143e c0f2 2bbc
00000010: cbfc 9c3d efaa 0cbd 99b4 503d 7130 3fbe
00000020: 4d73 9b3d 063b 953e f78f 013e ada0 4b3e
00000030: e359 233e 7f08 46bb 6a63 24be 240c 59bb
00000040: 187a ad3c b447 1c3e 9a87 3fbe 4832 c43d
00000050: 91a0 ca3d 5301 e4bd 270a 113e 2c36 913c
00000060: 9efa 603e 6bdb 9fbd 3e56 d0bc 5af6 363e
00000070: 0780 993e 1371 953d 5147 64be ea77 4b3d
00000080: 061f b83d 0a9d 1b3c 687d 27be e8c3 84be
00000090: 74b9 8a3c 90c1 ddbd c8d1 09be 1b15 6c3e
000000a0: 7274 ed3c a158 103e 47ea af3d f52d cbbd
000000b0: fe8a b0be d559 ad3e 619a 473e a2d6 efbb
000000c0: e663 883e 1caf b2bc 82e3 81bd f3dd d1bd
000000d0: 9fa8 f4ba f2c8 a73e 7d33 933d 96a5 c4bd
000000e0: b89b a83c 402e 343e e0a6 b8bd 1852 c53e
000000f0: 5384 edbd 541f 633e 00c3 853d 04ce eb3d
00000100: 422b 103e d5ad 933e 3b3c 5ebd 1979 cc3d
00000110: 9340 513e cd10 df3c d513 bd3d f82b 14be
00000120: e682 603e e30b c73d e663 a0be aac2 0d3e
00000130: 8754 5bbe 4d60 f83d 16ca 06be 26d8 d13d
00000140: 62a7 323c f4ab bd3b f7d0 a4bc 8579 36be
00000150: e83a 31bc ee5a 393e aa85 6dbd e35d c8bb
00000160: f15a 603e 252b 81be 7d75 533e d50d 0f3d
00000170: faf4 5e3d 5352 083d 065b d53d 131f bcbd
00000180: c43d 7e3e d8a2 c1bc cef8 103e 4332 fe3d
00000190: b7a3 bcbc 4669 6b3e 4dd2 c1bd 9a53 01be
000001a0: 6232 b43c ee0d 2d3e 1b6e 1bbd 86b1 453e
000001b0: 9560 16be 14da 8f3e c0be 6f3d 4e28 dd3d
000001c0: 78d1 213e 08e4 403e 96c7 923d 5e57 bdbd
000001d0: 3fd3 bbbd 89af 043d c441 f0bd af2c ca3c
000001e0: 7a8f 213e e4c1 703d 9650 993e efa3 433e
000001f0: 2c64 863d 99a7 0d3e 704b db3c 16d8 843e
00000200: 307a 833e 3bd6 3fbd 258b 9e3e f889 853e
00000210: e32d b5bd 0a48 20be 1c6b 043d 8be8 89be
00000220: 9387 4d3e bfe2 06be 4bdd d13c 2869 8fbe
00000230: 2335 9bbe 6584 16be c71d 663e 91ee 5e3e
00000240: 2844 e93d 3051 08bd 9ccc 52bd c299 b23d
00000250: a99f 4d3e d29f c23c ee52 353e 1bf9 e43d
00000260: b6c7 763d 5feb 1f3d 67e8 0e3d 0239 543e
00000270: 8404 48be e13d 123c 0640 c63d 3d0d 9d3e
00000280: 0afd 45be 7834 51be 3118 5c3e 4b2c cf3d
00000290: 48e0 c0bd cf7e 1dbe 3403 303c 9db1 b0bb
000002a0: d726 0ebe f886 883d 4765 773d 8a27 823e
000002b0: b0e9 51be 0221 75be 33b6 8f3e 97eb 0dbe
000002c0: 90b9 5ebe 2dfa 013e f4e8 4ebd f4c7 8abd
000002d0: cf43 e83d 7604 3c3e 4860 07be b089 593d
000002e0: f823 03be 85c7 4f3e 3ff8 413e 2249 223d
000002f0: 5e68 c5bd e7a3 373d 06ed 873e f071 083e
00000300: 68a4 31bb b3ec 943d 11c1 3fbe 4942 523e
00000310: f14b 4c3e 42fe 473e d62e 28be 0a0e ce3d
00000320: 2f5c 803e b5b0 85bc 1f46 a13d 9199 2e3e
00000330: fa98 893d 49bd b7bd 5eca 243e 8f1b 10be
00000340: 1894 6d3e 75c2 0abe d924 8ebe a5f3 773e
00000350: ad7a 723d f7e5 cf3b ec87 833c ba9b 853d
00000360: 28e3 1bbe f773 f9bd 546c efbd 1d22 873a
00000370: 5a92 6e3e 18ec c03d e92d 5d3e 33b5 e3bc
00000380: 1721 923d 9d56 593d cd84 1a3e 8722 29bd
00000390: 25c2 dbbc 28d0 313c f0f1 a6be 4648 3ebd
000003a0: d948 48be e100 afbd 5266 d13c 0f2b fd3c
000003b0: ca0c 5a3d 8e56 b0bd e304 6c3d e472 2dbe
000003c0: fc93 943e 3aa3 823e a1cc 943d 1cae 7f3e
000003d0: 4797 a4be edbf 243e 1887 ff3c 77c2 21bd
000003e0: 2de3 c0bc 3147 933e 3ef4 7e3d 0e5e 583e
000003f0: f5bf e2bc 4f4f 11bd 61f9 5a3e cfc9 c0bd

fc2.weight f4 [4, 256]
-0.057864133 -0.109583005 -0.034124654 -0.3909413 0.16619924 0.16627407 -0.03683309 -0.035553165
-0.1009433 0.035781767 0.26741692 -0.06360866 -0.23712519 -0.14945659 -0.08938267 -0.06467901
0.25124428 -0.038553026 -0.27097854 -0.13777927 0.047813345 -0.14762028 0.116071805 0.11974366
0.11084376 0.028526537 0.1604511 -0.06623026 0.03765663 0.2608757 0.019093016 -0.24875975
0.02055447 -0.03633507 -0.086068735 -0.49998954 -0.025014488 0.30487752 -0.09959437 0.18311395
0.010673745 0.05807537 -0.010072902 0.06417152 -0.029638898 -0.21152338 0.0319661 0.023538575
0.075648434 -0.03527743 0.3377851 0.2867807 0.042280015 -0.38103318 0.15482965 0.03017004
0.08869711 0.18570635 0.15764335 -0.20994823 -0.20564964 0.237953 0.27753153 -0.16843703
-0.12794816 -0.16732626 0.10183861 -0.35578385 0.2207235 -0.025535636 -0.10746422 0.04245697
0.11750924 -0.057274163 0.32156593 -0.017757485 -0.1494732 -0.015662238 0.09703114 -0.10628162
0.37175325 0.3146167 -0.021387368 -0.16094176 -0.23570573 0.14191979 -0.14163032 -0.38880166
-0.095652215 -0.052272152 0.12914607 0.26076892 -0.22957091 -0.023161232 -0.014994161 -0.36242232
-0.115864836 0.08399503 -0.0790552 0.00015784144 -0.041751333 0.04816159 0.07443737 0.0556531
-0.16396728 -0.038337566 0.08495135 0.16617917 -0.2890983 0.0802928 0.30511823 -0.08779469
-0.085629776 0.051493052 -0.085667215 0.15425427 0.113871574 -0.14310741 0.32648006 0.08888133
-0.08847938 -0.0051631215 0.26603323 -0.008275837 0.09442975 0.08109876 -0.26445985 0.04027752
-0.06826493 -0.06072711 -0.10551324 -0.12961125 -0.11438985 -0.07035321 -0.16716161 0.13718885
0.24460097 0.053327043 -0.23804198 0.07091957 -0.56630856 -0.37531385 -0.021223223 0.0835353
0.1525614 -0.22382401 -0.12138065 0.16328973 -0.07858963 0.24845864 0.24624299 -0.05057254
0.06782887 0.05154324 0.06131046 0.15793827 -0.10457528 -0.15294996 -0.23418285 0.13443543
0.035122428 -0.5618891 0.12291483 0.082677215 0.14391215 -0.061927807 0.04083204 -0.104783945
-0.39079544 -0.33147797 -0.53031194 0.18767646 -0.08340523 0.15496421 -0.053970866 0.014526911
0.15633632 0.02305162 0.1633884 0.1231335 0.20875429 -0.0062861466 0.2512435 0.08046338
-0.11696982 -0.053304996 0.18432124 0.0573539 0.3269914 0.08030587 -0.0056002573 -0.33286712
0.01024574 0.12531638 0.2265874 0.03865597 -0.09570903 0.06614191 -0.36955842 -0.07708737
-0.14788872 -0.288414 -0.3054599 0.050381407 -0.15015198 -0.34106556 0.10494804 0.17594473
0.039537545 -0.17260829 0.30971342 -0.11789699 0.19377318 -0.2080145 -0.2674831 0.11849959
0.058578927 -0.14656435 -0.069022946 -0.06924912 -0.019045781 0.13041082 0.11896986 0.23640192
-0.31684315 -0.21233104 0.013409821 0.112522826 -0.17268176 0.09675727 0.032066666 -0.09999567
-0.13786434 0.09891383 -0.20827256 0.0016856074 -0.04135022 0.015059982 0.14021303 -0.077293634
-0.00018880481 0.4265618 0.4125164 0.07718687 -0.3769785 0.16473347 0.22278227 -0.0865347
0.0030681049 -0.038886916 0.012935491 -0.04312673 -0.026213763 -0.079036295 -0.053290334 0.35593617
00000000: f102 6dbd 0e6d e0bd 4bc6 0bbd 7529 c8be
00000010: 2230 2a3e c043 2a3e 4bde 16bd 32a0 11bd
00000020: 5cbb cebd e78f 123d dfea 883e 4245 82bd
00000030: f2d0 72be 260b 19be 430e b7bd 6e76 84bd
00000040: 17a3 803e c7e9 1dbd b3bd 8abe 0216 0dbe
00000050: edd7 433d c529 17be 0eb7 ed3d 2a3c f53d
00000060: 0e02 e33d 7cb0 e93c 4b4d 243e bba3 87bd
00000070: d73d 1a3d 8091 853e f568 9c3c e0ba 7ebe
00000080: d961 a83c 15d4 14bd ce44 b0bd a1fe ffbe
00000090: 2feb ccbc e818 9c3e 22f8 cbbd 3982 3b3e
000000a0: eee0 2e3c 70e0 6d3d d008 25bc 5c6c 833d
000000b0: 46cd f2bc 9699 58be e3ee 023d f8d3 c03c
000000c0: 91ed 9a3d 117f 10bd 2bf2 ac3e ebd4 923e
000000d0: cf2d 2d3d c816 c3be aa8b 1e3e 2927 f73c
000000e0: d5a6 b53d ce29 3e3e 426d 213e abfc 56be
000000f0: d295 52be f4a9 733e 9d18 8e3e c27a 2cbe
00000100: d804 03be 9357 2bbe c390 d03d 4d29 b6be
00000110: 5705 623e 1c30 d1bc 3316 dcbd 5ce7 2d3d
00000120: afa8 f03d 5098 6abd 4aa4 a43e 2578 91bc
00000130: 810f 19be 184e 80bc 43b8 c63d 2eaa d9bd
00000140: 7156 be3e 7115 a13e 9034 afbc ebcd 24be
00000150: d85c 71be 6c53 113e 8a07 11be 0311 c7be
00000160: 4fe5 c3bd 531b 56bd de3e 043e 8183 853e
00000170: a314 6bbe a0bc bdbc 12aa 75bc 6b8f b9be
00000180: 8b4a edbd 9605 ac3d b1e7 a1bd 3d82 2539
00000190: 7203 2bbd 1645 453d 9f72 983d 81f4 633d
000001a0: 0ae7 27be da07 1dbd f9fa ad3d df2a 2a3e
000001b0: b104 94be 8d70 a43d 7538 9c3e b4cd b3bd
000001c0: aa5e afbd 61ea 523d 4b72 afbd d5f4 1d3e
000001d0: 8035 e93d c08a 12be 6528 a73e 6a07 b63d
000001e0: ad34 b5bd 672f a9bb 8235 883e 6097 07bc
000001f0: 6364 c13d 1b17 a63d 4867 87be 0afa 243d
00000200: 7cce 8bbd fdbc 78bd 5317 d8bd d0b8 04be
00000210: 3a45 eabd 5815 90bd 6a2c 2bbe 3c7b 0c3e
00000220: ad78 7a3e 756d 5a3d 47c1 73be 483e 913d
00000230: 99f9 10bf 2329 c0be 53dc adbc 8e14 ab3d
00000240: 0e39 1c3e 1f32 65be 6b96 f8bd 6c35 273e
00000250: 9af3 a0bd f16b 7e3e 1f27 7c3e 2725 4fbd
00000260: dde9 8a3d 011f 533d ad20 7b3d 92ba 213e
00000270: 902b d6bd ea9e 1cbe a1cd 6fbe 71a9 093e
00000280: 89dc 0f3d f7d7 0fbf c5ba fb3d ac52 a93d
00000290: b55d 133e 03a8 7dbd 7f3f 273d f798 d6bd
000002a0: 5716 c8be 7bb7 a9be 86c2 07bf 422e 403e
000002b0: 5cd0 aabd f0ae 1e3e 8e10 5dbd 4802 6e3c
000002c0: a116 203e c0d6 bc3c 4a4f 273e 6b2d fc3d
000002d0: afc3 553e 05fc cdbb fda2 803e fcc9 a43d
000002e0: df8d efbd 5756 5abd b5be 3c3e eceb 6a3d
000002f0: 6b6b a73e 6777 a43d 5d82 b7bb 8f6d aabe
00000300: c0dd 273c f052 003e 8706 683e b955 1e3d
00000310: 1903 c4bd 6975 873d c336 bdbe fcdf 9dbd
00000320: 2470 17be 00ab 93be 3d65 9cbe bc5c 4e3d
00000330: 71c1 19be 25a0 aebe ffee d63d db2a 343e
00000340: 1ff2 213d 3ac0 30be c292 9e3e fa73 f1bd
00000350: 7a6c 463e c101 55be 8bf3 88be eaaf f23d
00000360: 75f0 6f3d f714 16be e75b 8dbd 7cd2 8dbd
00000370: e605 9cbc 6a8a 053e 78a6 f33d 5813 723e
00000380: 4439 a2be 4f6d 59be deb4 5b3c 5e72 e63d
00000390: 7dd3 30be ad28 c63d 5658 033d 88ca ccbd
000003a0: 4f2c 0dbe 5693 ca3d 6745 55be 99ef dc3a
000003b0: d95e 29bd 25be 763c 0194 0f3e 204c 9ebd
000003c0: e8f9 45b9 4f66 da3e 5935 d33e 2614 9e3d
000003d0: 5303 c1be e4af 283e 0921 643e 1b39 b1bd
000003e0: 4212 493b e347 1fbd 62ef 533c a7a5 30bd
000003f0: 3fbe d6bc c8dd a1bd f746 5abd 443d b63e

fc2.bias f4 [4]
-0.021111969 0.049582675 0.02775155 -0.0066895615
00000000: 02f3 acbc 3417 4b3d 3857 e33c 1c34 dbbb
